node {
  name: "global_step/Initializer/zeros"
  op: "Const"
  attr {
    key: "_class"
    value {
      list {
        s: "loc:@global_step"
      }
    }
  }
  attr {
    key: "_output_shapes"
    value {
      list {
        shape {
        }
      }
    }
  }
  attr {
    key: "dtype"
    value {
      type: DT_INT64
    }
  }
  attr {
    key: "value"
    value {
      tensor {
        dtype: DT_INT64
        tensor_shape {
        }
        int64_val: 0
      }
    }
  }
}
node {
  name: "global_step"
  op: "VariableV2"
  attr {
    key: "_class"
    value {
      list {
        s: "loc:@global_step"
      }
    }
  }
  attr {
    key: "_output_shapes"
    value {
      list {
        shape {
        }
      }
    }
  }
  attr {
    key: "container"
    value {
      s: ""
    }
  }
  attr {
    key: "dtype"
    value {
      type: DT_INT64
    }
  }
  attr {
    key: "shape"
    value {
      shape {
      }
    }
  }
  attr {
    key: "shared_name"
    value {
      s: ""
    }
  }
}
node {
  name: "global_step/Assign"
  op: "Assign"
  input: "global_step"
  input: "global_step/Initializer/zeros"
  attr {
    key: "T"
    value {
      type: DT_INT64
    }
  }
  attr {
    key: "_class"
    value {
      list {
        s: "loc:@global_step"
      }
    }
  }
  attr {
    key: "_output_shapes"
    value {
      list {
        shape {
        }
      }
    }
  }
  attr {
    key: "use_locking"
    value {
      b: true
    }
  }
  attr {
    key: "validate_shape"
    value {
      b: true
    }
  }
}
node {
  name: "global_step/read"
  op: "Identity"
  input: "global_step"
  attr {
    key: "T"
    value {
      type: DT_INT64
    }
  }
  attr {
    key: "_class"
    value {
      list {
        s: "loc:@global_step"
      }
    }
  }
  attr {
    key: "_output_shapes"
    value {
      list {
        shape {
        }
      }
    }
  }
}
node {
  name: "global_step/IsVariableInitialized"
  op: "IsVariableInitialized"
  input: "global_step"
  attr {
    key: "_class"
    value {
      list {
        s: "loc:@global_step"
      }
    }
  }
  attr {
    key: "_output_shapes"
    value {
      list {
        shape {
        }
      }
    }
  }
  attr {
    key: "dtype"
    value {
      type: DT_INT64
    }
  }
}
node {
  name: "global_step/cond/Switch"
  op: "Switch"
  input: "global_step/IsVariableInitialized"
  input: "global_step/IsVariableInitialized"
  attr {
    key: "T"
    value {
      type: DT_BOOL
    }
  }
  attr {
    key: "_output_shapes"
    value {
      list {
        shape {
        }
        shape {
        }
      }
    }
  }
}
node {
  name: "global_step/cond/switch_t"
  op: "Identity"
  input: "global_step/cond/Switch:1"
  attr {
    key: "T"
    value {
      type: DT_BOOL
    }
  }
  attr {
    key: "_output_shapes"
    value {
      list {
        shape {
        }
      }
    }
  }
}
node {
  name: "global_step/cond/switch_f"
  op: "Identity"
  input: "global_step/cond/Switch"
  attr {
    key: "T"
    value {
      type: DT_BOOL
    }
  }
  attr {
    key: "_output_shapes"
    value {
      list {
        shape {
        }
      }
    }
  }
}
node {
  name: "global_step/cond/pred_id"
  op: "Identity"
  input: "global_step/IsVariableInitialized"
  attr {
    key: "T"
    value {
      type: DT_BOOL
    }
  }
  attr {
    key: "_output_shapes"
    value {
      list {
        shape {
        }
      }
    }
  }
}
node {
  name: "global_step/cond/read"
  op: "Identity"
  input: "global_step/cond/read/Switch:1"
  attr {
    key: "T"
    value {
      type: DT_INT64
    }
  }
  attr {
    key: "_output_shapes"
    value {
      list {
        shape {
        }
      }
    }
  }
}
node {
  name: "global_step/cond/read/Switch"
  op: "RefSwitch"
  input: "global_step"
  input: "global_step/cond/pred_id"
  attr {
    key: "T"
    value {
      type: DT_INT64
    }
  }
  attr {
    key: "_class"
    value {
      list {
        s: "loc:@global_step"
      }
    }
  }
  attr {
    key: "_output_shapes"
    value {
      list {
        shape {
        }
        shape {
        }
      }
    }
  }
}
node {
  name: "global_step/cond/Switch_1"
  op: "Switch"
  input: "global_step/Initializer/zeros"
  input: "global_step/cond/pred_id"
  attr {
    key: "T"
    value {
      type: DT_INT64
    }
  }
  attr {
    key: "_class"
    value {
      list {
        s: "loc:@global_step"
      }
    }
  }
  attr {
    key: "_output_shapes"
    value {
      list {
        shape {
        }
        shape {
        }
      }
    }
  }
}
node {
  name: "global_step/cond/Merge"
  op: "Merge"
  input: "global_step/cond/Switch_1"
  input: "global_step/cond/read"
  attr {
    key: "N"
    value {
      i: 2
    }
  }
  attr {
    key: "T"
    value {
      type: DT_INT64
    }
  }
  attr {
    key: "_output_shapes"
    value {
      list {
        shape {
        }
        shape {
        }
      }
    }
  }
}
node {
  name: "global_step/add/y"
  op: "Const"
  attr {
    key: "_output_shapes"
    value {
      list {
        shape {
        }
      }
    }
  }
  attr {
    key: "dtype"
    value {
      type: DT_INT64
    }
  }
  attr {
    key: "value"
    value {
      tensor {
        dtype: DT_INT64
        tensor_shape {
        }
        int64_val: 0
      }
    }
  }
}
node {
  name: "global_step/add"
  op: "Add"
  input: "global_step/cond/Merge"
  input: "global_step/add/y"
  attr {
    key: "T"
    value {
      type: DT_INT64
    }
  }
  attr {
    key: "_output_shapes"
    value {
      list {
        shape {
        }
      }
    }
  }
}
node {
  name: "start"
  op: "Const"
  device: "/device:CPU:0"
  attr {
    key: "_output_shapes"
    value {
      list {
        shape {
        }
      }
    }
  }
  attr {
    key: "dtype"
    value {
      type: DT_INT64
    }
  }
  attr {
    key: "value"
    value {
      tensor {
        dtype: DT_INT64
        tensor_shape {
        }
        int64_val: 0
      }
    }
  }
}
node {
  name: "stop"
  op: "Const"
  device: "/device:CPU:0"
  attr {
    key: "_output_shapes"
    value {
      list {
        shape {
        }
      }
    }
  }
  attr {
    key: "dtype"
    value {
      type: DT_INT64
    }
  }
  attr {
    key: "value"
    value {
      tensor {
        dtype: DT_INT64
        tensor_shape {
        }
        int64_val: 875
      }
    }
  }
}
node {
  name: "step"
  op: "Const"
  device: "/device:CPU:0"
  attr {
    key: "_output_shapes"
    value {
      list {
        shape {
        }
      }
    }
  }
  attr {
    key: "dtype"
    value {
      type: DT_INT64
    }
  }
  attr {
    key: "value"
    value {
      tensor {
        dtype: DT_INT64
        tensor_shape {
        }
        int64_val: 1
      }
    }
  }
}
node {
  name: "count"
  op: "Const"
  device: "/device:CPU:0"
  attr {
    key: "_output_shapes"
    value {
      list {
        shape {
        }
      }
    }
  }
  attr {
    key: "dtype"
    value {
      type: DT_INT64
    }
  }
  attr {
    key: "value"
    value {
      tensor {
        dtype: DT_INT64
        tensor_shape {
        }
        int64_val: -1
      }
    }
  }
}
node {
  name: "buffer_size"
  op: "Const"
  device: "/device:CPU:0"
  attr {
    key: "_output_shapes"
    value {
      list {
        shape {
        }
      }
    }
  }
  attr {
    key: "dtype"
    value {
      type: DT_INT64
    }
  }
  attr {
    key: "value"
    value {
      tensor {
        dtype: DT_INT64
        tensor_shape {
        }
        int64_val: 1000
      }
    }
  }
}
node {
  name: "seed"
  op: "Const"
  device: "/device:CPU:0"
  attr {
    key: "_output_shapes"
    value {
      list {
        shape {
        }
      }
    }
  }
  attr {
    key: "dtype"
    value {
      type: DT_INT64
    }
  }
  attr {
    key: "value"
    value {
      tensor {
        dtype: DT_INT64
        tensor_shape {
        }
        int64_val: 0
      }
    }
  }
}
node {
  name: "seed2"
  op: "Const"
  device: "/device:CPU:0"
  attr {
    key: "_output_shapes"
    value {
      list {
        shape {
        }
      }
    }
  }
  attr {
    key: "dtype"
    value {
      type: DT_INT64
    }
  }
  attr {
    key: "value"
    value {
      tensor {
        dtype: DT_INT64
        tensor_shape {
        }
        int64_val: 0
      }
    }
  }
}
node {
  name: "batch_size"
  op: "Const"
  device: "/device:CPU:0"
  attr {
    key: "_output_shapes"
    value {
      list {
        shape {
        }
      }
    }
  }
  attr {
    key: "dtype"
    value {
      type: DT_INT64
    }
  }
  attr {
    key: "value"
    value {
      tensor {
        dtype: DT_INT64
        tensor_shape {
        }
        int64_val: 32
      }
    }
  }
}
node {
  name: "drop_remainder"
  op: "Const"
  device: "/device:CPU:0"
  attr {
    key: "_output_shapes"
    value {
      list {
        shape {
        }
      }
    }
  }
  attr {
    key: "dtype"
    value {
      type: DT_BOOL
    }
  }
  attr {
    key: "value"
    value {
      tensor {
        dtype: DT_BOOL
        tensor_shape {
        }
        bool_val: false
      }
    }
  }
}
node {
  name: "buffer_size_1"
  op: "Const"
  device: "/device:CPU:0"
  attr {
    key: "_output_shapes"
    value {
      list {
        shape {
        }
      }
    }
  }
  attr {
    key: "dtype"
    value {
      type: DT_INT64
    }
  }
  attr {
    key: "value"
    value {
      tensor {
        dtype: DT_INT64
        tensor_shape {
        }
        int64_val: 16
      }
    }
  }
}
node {
  name: "IteratorV2"
  op: "IteratorV2"
  attr {
    key: "_output_shapes"
    value {
      list {
        shape {
        }
      }
    }
  }
  attr {
    key: "container"
    value {
      s: ""
    }
  }
  attr {
    key: "output_shapes"
    value {
      list {
        shape {
          unknown_rank: true
        }
        shape {
          unknown_rank: true
        }
      }
    }
  }
  attr {
    key: "output_types"
    value {
      list {
        type: DT_FLOAT
        type: DT_FLOAT
      }
    }
  }
  attr {
    key: "shared_name"
    value {
      s: ""
    }
  }
}
node {
  name: "RangeDataset"
  op: "RangeDataset"
  input: "start"
  input: "stop"
  input: "step"
  attr {
    key: "_class"
    value {
      list {
        s: "loc:@IteratorV2"
      }
    }
  }
  attr {
    key: "_output_shapes"
    value {
      list {
        shape {
        }
      }
    }
  }
  attr {
    key: "output_shapes"
    value {
      list {
        shape {
        }
      }
    }
  }
  attr {
    key: "output_types"
    value {
      list {
        type: DT_INT64
      }
    }
  }
}
node {
  name: "RepeatDataset"
  op: "RepeatDataset"
  input: "RangeDataset"
  input: "count"
  attr {
    key: "_class"
    value {
      list {
        s: "loc:@IteratorV2"
      }
    }
  }
  attr {
    key: "_output_shapes"
    value {
      list {
        shape {
        }
      }
    }
  }
  attr {
    key: "output_shapes"
    value {
      list {
        shape {
        }
      }
    }
  }
  attr {
    key: "output_types"
    value {
      list {
        type: DT_INT64
      }
    }
  }
}
node {
  name: "ShuffleDataset"
  op: "ShuffleDataset"
  input: "RepeatDataset"
  input: "buffer_size"
  input: "seed"
  input: "seed2"
  attr {
    key: "_class"
    value {
      list {
        s: "loc:@IteratorV2"
      }
    }
  }
  attr {
    key: "_output_shapes"
    value {
      list {
        shape {
        }
      }
    }
  }
  attr {
    key: "output_shapes"
    value {
      list {
        shape {
        }
      }
    }
  }
  attr {
    key: "output_types"
    value {
      list {
        type: DT_INT64
      }
    }
  }
  attr {
    key: "reshuffle_each_iteration"
    value {
      b: true
    }
  }
}
node {
  name: "BatchDatasetV2"
  op: "BatchDatasetV2"
  input: "ShuffleDataset"
  input: "batch_size"
  input: "drop_remainder"
  attr {
    key: "_class"
    value {
      list {
        s: "loc:@IteratorV2"
      }
    }
  }
  attr {
    key: "_output_shapes"
    value {
      list {
        shape {
        }
      }
    }
  }
  attr {
    key: "output_shapes"
    value {
      list {
        shape {
          dim {
            size: -1
          }
        }
      }
    }
  }
  attr {
    key: "output_types"
    value {
      list {
        type: DT_INT64
      }
    }
  }
}
node {
  name: "MapDataset"
  op: "MapDataset"
  input: "BatchDatasetV2"
  attr {
    key: "Targuments"
    value {
      list {
      }
    }
  }
  attr {
    key: "_class"
    value {
      list {
        s: "loc:@IteratorV2"
      }
    }
  }
  attr {
    key: "_output_shapes"
    value {
      list {
        shape {
        }
      }
    }
  }
  attr {
    key: "f"
    value {
      func {
        name: "tf_data_structured_function_wrapper_aA3atTapwCk"
      }
    }
  }
  attr {
    key: "output_shapes"
    value {
      list {
        shape {
          unknown_rank: true
        }
        shape {
          unknown_rank: true
        }
      }
    }
  }
  attr {
    key: "output_types"
    value {
      list {
        type: DT_FLOAT
        type: DT_FLOAT
      }
    }
  }
}
node {
  name: "PrefetchDataset"
  op: "PrefetchDataset"
  input: "MapDataset"
  input: "buffer_size_1"
  attr {
    key: "_class"
    value {
      list {
        s: "loc:@IteratorV2"
      }
    }
  }
  attr {
    key: "_output_shapes"
    value {
      list {
        shape {
        }
      }
    }
  }
  attr {
    key: "output_shapes"
    value {
      list {
        shape {
          unknown_rank: true
        }
        shape {
          unknown_rank: true
        }
      }
    }
  }
  attr {
    key: "output_types"
    value {
      list {
        type: DT_FLOAT
        type: DT_FLOAT
      }
    }
  }
}
node {
  name: "MakeIterator"
  op: "MakeIterator"
  input: "PrefetchDataset"
  input: "IteratorV2"
  attr {
    key: "_class"
    value {
      list {
        s: "loc:@IteratorV2"
      }
    }
  }
}
node {
  name: "IteratorToStringHandle"
  op: "IteratorToStringHandle"
  input: "IteratorV2"
  attr {
    key: "_output_shapes"
    value {
      list {
        shape {
        }
      }
    }
  }
}
node {
  name: "IteratorGetNext"
  op: "IteratorGetNext"
  input: "IteratorV2"
  attr {
    key: "_output_shapes"
    value {
      list {
        shape {
          unknown_rank: true
        }
        shape {
          unknown_rank: true
        }
      }
    }
  }
  attr {
    key: "output_shapes"
    value {
      list {
        shape {
          unknown_rank: true
        }
        shape {
          unknown_rank: true
        }
      }
    }
  }
  attr {
    key: "output_types"
    value {
      list {
        type: DT_FLOAT
        type: DT_FLOAT
      }
    }
  }
}
node {
  name: "module/input"
  op: "Placeholder"
  attr {
    key: "_output_shapes"
    value {
      list {
        shape {
          dim {
            size: -1
          }
          dim {
            size: -1
          }
          dim {
            size: -1
          }
          dim {
            size: -1
          }
          dim {
            size: 1
          }
        }
      }
    }
  }
  attr {
    key: "dtype"
    value {
      type: DT_FLOAT
    }
  }
  attr {
    key: "shape"
    value {
      shape {
        dim {
          size: -1
        }
        dim {
          size: -1
        }
        dim {
          size: -1
        }
        dim {
          size: -1
        }
        dim {
          size: 1
        }
      }
    }
  }
}
node {
  name: "module/observations"
  op: "Placeholder"
  attr {
    key: "_output_shapes"
    value {
      list {
        shape {
          dim {
            size: -1
          }
          dim {
            size: -1
          }
          dim {
            size: -1
          }
          dim {
            size: -1
          }
          dim {
            size: 2
          }
        }
      }
    }
  }
  attr {
    key: "dtype"
    value {
      type: DT_FLOAT
    }
  }
  attr {
    key: "shape"
    value {
      shape {
        dim {
          size: -1
        }
        dim {
          size: -1
        }
        dim {
          size: -1
        }
        dim {
          size: -1
        }
        dim {
          size: 2
        }
      }
    }
  }
}
node {
  name: "module/strided_slice/stack"
  op: "Const"
  attr {
    key: "_output_shapes"
    value {
      list {
        shape {
          dim {
            size: 2
          }
        }
      }
    }
  }
  attr {
    key: "dtype"
    value {
      type: DT_INT32
    }
  }
  attr {
    key: "value"
    value {
      tensor {
        dtype: DT_INT32
        tensor_shape {
          dim {
            size: 2
          }
        }
        tensor_content: "\000\000\000\000\000\000\000\000"
      }
    }
  }
}
node {
  name: "module/strided_slice/stack_1"
  op: "Const"
  attr {
    key: "_output_shapes"
    value {
      list {
        shape {
          dim {
            size: 2
          }
        }
      }
    }
  }
  attr {
    key: "dtype"
    value {
      type: DT_INT32
    }
  }
  attr {
    key: "value"
    value {
      tensor {
        dtype: DT_INT32
        tensor_shape {
          dim {
            size: 2
          }
        }
        tensor_content: "\000\000\000\000\001\000\000\000"
      }
    }
  }
}
node {
  name: "module/strided_slice/stack_2"
  op: "Const"
  attr {
    key: "_output_shapes"
    value {
      list {
        shape {
          dim {
            size: 2
          }
        }
      }
    }
  }
  attr {
    key: "dtype"
    value {
      type: DT_INT32
    }
  }
  attr {
    key: "value"
    value {
      tensor {
        dtype: DT_INT32
        tensor_shape {
          dim {
            size: 2
          }
        }
        tensor_content: "\001\000\000\000\001\000\000\000"
      }
    }
  }
}
node {
  name: "module/strided_slice"
  op: "StridedSlice"
  input: "module/observations"
  input: "module/strided_slice/stack"
  input: "module/strided_slice/stack_1"
  input: "module/strided_slice/stack_2"
  attr {
    key: "Index"
    value {
      type: DT_INT32
    }
  }
  attr {
    key: "T"
    value {
      type: DT_FLOAT
    }
  }
  attr {
    key: "_output_shapes"
    value {
      list {
        shape {
          dim {
            size: -1
          }
          dim {
            size: -1
          }
          dim {
            size: -1
          }
          dim {
            size: -1
          }
          dim {
            size: 1
          }
        }
      }
    }
  }
  attr {
    key: "begin_mask"
    value {
      i: 2
    }
  }
  attr {
    key: "ellipsis_mask"
    value {
      i: 1
    }
  }
  attr {
    key: "end_mask"
    value {
      i: 0
    }
  }
  attr {
    key: "new_axis_mask"
    value {
      i: 0
    }
  }
  attr {
    key: "shrink_axis_mask"
    value {
      i: 0
    }
  }
}
node {
  name: "module/clip_by_value/Minimum/y"
  op: "Const"
  attr {
    key: "_output_shapes"
    value {
      list {
        shape {
        }
      }
    }
  }
  attr {
    key: "dtype"
    value {
      type: DT_FLOAT
    }
  }
  attr {
    key: "value"
    value {
      tensor {
        dtype: DT_FLOAT
        tensor_shape {
        }
        float_val: 1.0
      }
    }
  }
}
node {
  name: "module/clip_by_value/Minimum"
  op: "Minimum"
  input: "module/strided_slice"
  input: "module/clip_by_value/Minimum/y"
  attr {
    key: "T"
    value {
      type: DT_FLOAT
    }
  }
  attr {
    key: "_output_shapes"
    value {
      list {
        shape {
          dim {
            size: -1
          }
          dim {
            size: -1
          }
          dim {
            size: -1
          }
          dim {
            size: -1
          }
          dim {
            size: 1
          }
        }
      }
    }
  }
}
node {
  name: "module/clip_by_value/y"
  op: "Const"
  attr {
    key: "_output_shapes"
    value {
      list {
        shape {
        }
      }
    }
  }
  attr {
    key: "dtype"
    value {
      type: DT_FLOAT
    }
  }
  attr {
    key: "value"
    value {
      tensor {
        dtype: DT_FLOAT
        tensor_shape {
        }
        float_val: 0.0
      }
    }
  }
}
node {
  name: "module/clip_by_value"
  op: "Maximum"
  input: "module/clip_by_value/Minimum"
  input: "module/clip_by_value/y"
  attr {
    key: "T"
    value {
      type: DT_FLOAT
    }
  }
  attr {
    key: "_output_shapes"
    value {
      list {
        shape {
          dim {
            size: -1
          }
          dim {
            size: -1
          }
          dim {
            size: -1
          }
          dim {
            size: -1
          }
          dim {
            size: 1
          }
        }
      }
    }
  }
}
node {
  name: "module/Conv/weights/Initializer/random_uniform/shape"
  op: "Const"
  attr {
    key: "_class"
    value {
      list {
        s: "loc:@module/Conv/weights"
      }
    }
  }
  attr {
    key: "_output_shapes"
    value {
      list {
        shape {
          dim {
            size: 5
          }
        }
      }
    }
  }
  attr {
    key: "dtype"
    value {
      type: DT_INT32
    }
  }
  attr {
    key: "value"
    value {
      tensor {
        dtype: DT_INT32
        tensor_shape {
          dim {
            size: 5
          }
        }
        tensor_content: "\005\000\000\000\005\000\000\000\005\000\000\000\001\000\000\000\020\000\000\000"
      }
    }
  }
}
node {
  name: "module/Conv/weights/Initializer/random_uniform/min"
  op: "Const"
  attr {
    key: "_class"
    value {
      list {
        s: "loc:@module/Conv/weights"
      }
    }
  }
  attr {
    key: "_output_shapes"
    value {
      list {
        shape {
        }
      }
    }
  }
  attr {
    key: "dtype"
    value {
      type: DT_FLOAT
    }
  }
  attr {
    key: "value"
    value {
      tensor {
        dtype: DT_FLOAT
        tensor_shape {
        }
        float_val: -0.05313689261674881
      }
    }
  }
}
node {
  name: "module/Conv/weights/Initializer/random_uniform/max"
  op: "Const"
  attr {
    key: "_class"
    value {
      list {
        s: "loc:@module/Conv/weights"
      }
    }
  }
  attr {
    key: "_output_shapes"
    value {
      list {
        shape {
        }
      }
    }
  }
  attr {
    key: "dtype"
    value {
      type: DT_FLOAT
    }
  }
  attr {
    key: "value"
    value {
      tensor {
        dtype: DT_FLOAT
        tensor_shape {
        }
        float_val: 0.05313689261674881
      }
    }
  }
}
node {
  name: "module/Conv/weights/Initializer/random_uniform/RandomUniform"
  op: "RandomUniform"
  input: "module/Conv/weights/Initializer/random_uniform/shape"
  attr {
    key: "T"
    value {
      type: DT_INT32
    }
  }
  attr {
    key: "_class"
    value {
      list {
        s: "loc:@module/Conv/weights"
      }
    }
  }
  attr {
    key: "_output_shapes"
    value {
      list {
        shape {
          dim {
            size: 5
          }
          dim {
            size: 5
          }
          dim {
            size: 5
          }
          dim {
            size: 1
          }
          dim {
            size: 16
          }
        }
      }
    }
  }
  attr {
    key: "dtype"
    value {
      type: DT_FLOAT
    }
  }
  attr {
    key: "seed"
    value {
      i: 0
    }
  }
  attr {
    key: "seed2"
    value {
      i: 0
    }
  }
}
node {
  name: "module/Conv/weights/Initializer/random_uniform/sub"
  op: "Sub"
  input: "module/Conv/weights/Initializer/random_uniform/max"
  input: "module/Conv/weights/Initializer/random_uniform/min"
  attr {
    key: "T"
    value {
      type: DT_FLOAT
    }
  }
  attr {
    key: "_class"
    value {
      list {
        s: "loc:@module/Conv/weights"
      }
    }
  }
  attr {
    key: "_output_shapes"
    value {
      list {
        shape {
        }
      }
    }
  }
}
node {
  name: "module/Conv/weights/Initializer/random_uniform/mul"
  op: "Mul"
  input: "module/Conv/weights/Initializer/random_uniform/RandomUniform"
  input: "module/Conv/weights/Initializer/random_uniform/sub"
  attr {
    key: "T"
    value {
      type: DT_FLOAT
    }
  }
  attr {
    key: "_class"
    value {
      list {
        s: "loc:@module/Conv/weights"
      }
    }
  }
  attr {
    key: "_output_shapes"
    value {
      list {
        shape {
          dim {
            size: 5
          }
          dim {
            size: 5
          }
          dim {
            size: 5
          }
          dim {
            size: 1
          }
          dim {
            size: 16
          }
        }
      }
    }
  }
}
node {
  name: "module/Conv/weights/Initializer/random_uniform"
  op: "Add"
  input: "module/Conv/weights/Initializer/random_uniform/mul"
  input: "module/Conv/weights/Initializer/random_uniform/min"
  attr {
    key: "T"
    value {
      type: DT_FLOAT
    }
  }
  attr {
    key: "_class"
    value {
      list {
        s: "loc:@module/Conv/weights"
      }
    }
  }
  attr {
    key: "_output_shapes"
    value {
      list {
        shape {
          dim {
            size: 5
          }
          dim {
            size: 5
          }
          dim {
            size: 5
          }
          dim {
            size: 1
          }
          dim {
            size: 16
          }
        }
      }
    }
  }
}
node {
  name: "module/Conv/weights"
  op: "VarHandleOp"
  attr {
    key: "_class"
    value {
      list {
        s: "loc:@module/Conv/weights"
      }
    }
  }
  attr {
    key: "_output_shapes"
    value {
      list {
        shape {
        }
      }
    }
  }
  attr {
    key: "container"
    value {
      s: ""
    }
  }
  attr {
    key: "dtype"
    value {
      type: DT_FLOAT
    }
  }
  attr {
    key: "shape"
    value {
      shape {
        dim {
          size: 5
        }
        dim {
          size: 5
        }
        dim {
          size: 5
        }
        dim {
          size: 1
        }
        dim {
          size: 16
        }
      }
    }
  }
  attr {
    key: "shared_name"
    value {
      s: "module/Conv/weights"
    }
  }
}
node {
  name: "module/Conv/weights/IsInitialized/VarIsInitializedOp"
  op: "VarIsInitializedOp"
  input: "module/Conv/weights"
  attr {
    key: "_output_shapes"
    value {
      list {
        shape {
        }
      }
    }
  }
}
node {
  name: "module/Conv/weights/Assign"
  op: "AssignVariableOp"
  input: "module/Conv/weights"
  input: "module/Conv/weights/Initializer/random_uniform"
  attr {
    key: "_class"
    value {
      list {
        s: "loc:@module/Conv/weights"
      }
    }
  }
  attr {
    key: "dtype"
    value {
      type: DT_FLOAT
    }
  }
}
node {
  name: "module/Conv/weights/Read/ReadVariableOp"
  op: "ReadVariableOp"
  input: "module/Conv/weights"
  attr {
    key: "_class"
    value {
      list {
        s: "loc:@module/Conv/weights"
      }
    }
  }
  attr {
    key: "_output_shapes"
    value {
      list {
        shape {
          dim {
            size: 5
          }
          dim {
            size: 5
          }
          dim {
            size: 5
          }
          dim {
            size: 1
          }
          dim {
            size: 16
          }
        }
      }
    }
  }
  attr {
    key: "dtype"
    value {
      type: DT_FLOAT
    }
  }
}
node {
  name: "module/Conv/biases/Initializer/zeros"
  op: "Const"
  attr {
    key: "_class"
    value {
      list {
        s: "loc:@module/Conv/biases"
      }
    }
  }
  attr {
    key: "_output_shapes"
    value {
      list {
        shape {
          dim {
            size: 16
          }
        }
      }
    }
  }
  attr {
    key: "dtype"
    value {
      type: DT_FLOAT
    }
  }
  attr {
    key: "value"
    value {
      tensor {
        dtype: DT_FLOAT
        tensor_shape {
          dim {
            size: 16
          }
        }
        float_val: 0.0
      }
    }
  }
}
node {
  name: "module/Conv/biases"
  op: "VarHandleOp"
  attr {
    key: "_class"
    value {
      list {
        s: "loc:@module/Conv/biases"
      }
    }
  }
  attr {
    key: "_output_shapes"
    value {
      list {
        shape {
        }
      }
    }
  }
  attr {
    key: "container"
    value {
      s: ""
    }
  }
  attr {
    key: "dtype"
    value {
      type: DT_FLOAT
    }
  }
  attr {
    key: "shape"
    value {
      shape {
        dim {
          size: 16
        }
      }
    }
  }
  attr {
    key: "shared_name"
    value {
      s: "module/Conv/biases"
    }
  }
}
node {
  name: "module/Conv/biases/IsInitialized/VarIsInitializedOp"
  op: "VarIsInitializedOp"
  input: "module/Conv/biases"
  attr {
    key: "_output_shapes"
    value {
      list {
        shape {
        }
      }
    }
  }
}
node {
  name: "module/Conv/biases/Assign"
  op: "AssignVariableOp"
  input: "module/Conv/biases"
  input: "module/Conv/biases/Initializer/zeros"
  attr {
    key: "_class"
    value {
      list {
        s: "loc:@module/Conv/biases"
      }
    }
  }
  attr {
    key: "dtype"
    value {
      type: DT_FLOAT
    }
  }
}
node {
  name: "module/Conv/biases/Read/ReadVariableOp"
  op: "ReadVariableOp"
  input: "module/Conv/biases"
  attr {
    key: "_class"
    value {
      list {
        s: "loc:@module/Conv/biases"
      }
    }
  }
  attr {
    key: "_output_shapes"
    value {
      list {
        shape {
          dim {
            size: 16
          }
        }
      }
    }
  }
  attr {
    key: "dtype"
    value {
      type: DT_FLOAT
    }
  }
}
node {
  name: "module/Conv/dilation_rate"
  op: "Const"
  attr {
    key: "_output_shapes"
    value {
      list {
        shape {
          dim {
            size: 3
          }
        }
      }
    }
  }
  attr {
    key: "dtype"
    value {
      type: DT_INT32
    }
  }
  attr {
    key: "value"
    value {
      tensor {
        dtype: DT_INT32
        tensor_shape {
          dim {
            size: 3
          }
        }
        tensor_content: "\001\000\000\000\001\000\000\000\001\000\000\000"
      }
    }
  }
}
node {
  name: "module/Conv/Conv3D/ReadVariableOp"
  op: "ReadVariableOp"
  input: "module/Conv/weights"
  attr {
    key: "_output_shapes"
    value {
      list {
        shape {
          dim {
            size: 5
          }
          dim {
            size: 5
          }
          dim {
            size: 5
          }
          dim {
            size: 1
          }
          dim {
            size: 16
          }
        }
      }
    }
  }
  attr {
    key: "dtype"
    value {
      type: DT_FLOAT
    }
  }
}
node {
  name: "module/Conv/Conv3D"
  op: "Conv3D"
  input: "module/input"
  input: "module/Conv/Conv3D/ReadVariableOp"
  attr {
    key: "T"
    value {
      type: DT_FLOAT
    }
  }
  attr {
    key: "_output_shapes"
    value {
      list {
        shape {
          dim {
            size: -1
          }
          dim {
            size: -1
          }
          dim {
            size: -1
          }
          dim {
            size: -1
          }
          dim {
            size: 16
          }
        }
      }
    }
  }
  attr {
    key: "data_format"
    value {
      s: "NDHWC"
    }
  }
  attr {
    key: "dilations"
    value {
      list {
        i: 1
        i: 1
        i: 1
        i: 1
        i: 1
      }
    }
  }
  attr {
    key: "padding"
    value {
      s: "SAME"
    }
  }
  attr {
    key: "strides"
    value {
      list {
        i: 1
        i: 1
        i: 1
        i: 1
        i: 1
      }
    }
  }
}
node {
  name: "module/Conv/BiasAdd/ReadVariableOp"
  op: "ReadVariableOp"
  input: "module/Conv/biases"
  attr {
    key: "_output_shapes"
    value {
      list {
        shape {
          dim {
            size: 16
          }
        }
      }
    }
  }
  attr {
    key: "dtype"
    value {
      type: DT_FLOAT
    }
  }
}
node {
  name: "module/Conv/BiasAdd"
  op: "BiasAdd"
  input: "module/Conv/Conv3D"
  input: "module/Conv/BiasAdd/ReadVariableOp"
  attr {
    key: "T"
    value {
      type: DT_FLOAT
    }
  }
  attr {
    key: "_output_shapes"
    value {
      list {
        shape {
          dim {
            size: -1
          }
          dim {
            size: -1
          }
          dim {
            size: -1
          }
          dim {
            size: -1
          }
          dim {
            size: 16
          }
        }
      }
    }
  }
  attr {
    key: "data_format"
    value {
      s: "NHWC"
    }
  }
}
node {
  name: "module/Conv/LeakyRelu/alpha"
  op: "Const"
  attr {
    key: "_output_shapes"
    value {
      list {
        shape {
        }
      }
    }
  }
  attr {
    key: "dtype"
    value {
      type: DT_FLOAT
    }
  }
  attr {
    key: "value"
    value {
      tensor {
        dtype: DT_FLOAT
        tensor_shape {
        }
        float_val: 0.20000000298023224
      }
    }
  }
}
node {
  name: "module/Conv/LeakyRelu/mul"
  op: "Mul"
  input: "module/Conv/LeakyRelu/alpha"
  input: "module/Conv/BiasAdd"
  attr {
    key: "T"
    value {
      type: DT_FLOAT
    }
  }
  attr {
    key: "_output_shapes"
    value {
      list {
        shape {
          dim {
            size: -1
          }
          dim {
            size: -1
          }
          dim {
            size: -1
          }
          dim {
            size: -1
          }
          dim {
            size: 16
          }
        }
      }
    }
  }
}
node {
  name: "module/Conv/LeakyRelu"
  op: "Maximum"
  input: "module/Conv/LeakyRelu/mul"
  input: "module/Conv/BiasAdd"
  attr {
    key: "T"
    value {
      type: DT_FLOAT
    }
  }
  attr {
    key: "_output_shapes"
    value {
      list {
        shape {
          dim {
            size: -1
          }
          dim {
            size: -1
          }
          dim {
            size: -1
          }
          dim {
            size: -1
          }
          dim {
            size: 16
          }
        }
      }
    }
  }
}
node {
  name: "module/wide_resnet/LeakyRelu/alpha"
  op: "Const"
  attr {
    key: "_output_shapes"
    value {
      list {
        shape {
        }
      }
    }
  }
  attr {
    key: "dtype"
    value {
      type: DT_FLOAT
    }
  }
  attr {
    key: "value"
    value {
      tensor {
        dtype: DT_FLOAT
        tensor_shape {
        }
        float_val: 0.20000000298023224
      }
    }
  }
}
node {
  name: "module/wide_resnet/LeakyRelu/mul"
  op: "Mul"
  input: "module/wide_resnet/LeakyRelu/alpha"
  input: "module/Conv/LeakyRelu"
  attr {
    key: "T"
    value {
      type: DT_FLOAT
    }
  }
  attr {
    key: "_output_shapes"
    value {
      list {
        shape {
          dim {
            size: -1
          }
          dim {
            size: -1
          }
          dim {
            size: -1
          }
          dim {
            size: -1
          }
          dim {
            size: 16
          }
        }
      }
    }
  }
}
node {
  name: "module/wide_resnet/LeakyRelu"
  op: "Maximum"
  input: "module/wide_resnet/LeakyRelu/mul"
  input: "module/Conv/LeakyRelu"
  attr {
    key: "T"
    value {
      type: DT_FLOAT
    }
  }
  attr {
    key: "_output_shapes"
    value {
      list {
        shape {
          dim {
            size: -1
          }
          dim {
            size: -1
          }
          dim {
            size: -1
          }
          dim {
            size: -1
          }
          dim {
            size: 16
          }
        }
      }
    }
  }
}
node {
  name: "module/wide_resnet/shortcut/weights/Initializer/truncated_normal/shape"
  op: "Const"
  attr {
    key: "_class"
    value {
      list {
        s: "loc:@module/wide_resnet/shortcut/weights"
      }
    }
  }
  attr {
    key: "_output_shapes"
    value {
      list {
        shape {
          dim {
            size: 5
          }
        }
      }
    }
  }
  attr {
    key: "dtype"
    value {
      type: DT_INT32
    }
  }
  attr {
    key: "value"
    value {
      tensor {
        dtype: DT_INT32
        tensor_shape {
          dim {
            size: 5
          }
        }
        tensor_content: "\001\000\000\000\001\000\000\000\001\000\000\000\020\000\000\000 \000\000\000"
      }
    }
  }
}
node {
  name: "module/wide_resnet/shortcut/weights/Initializer/truncated_normal/mean"
  op: "Const"
  attr {
    key: "_class"
    value {
      list {
        s: "loc:@module/wide_resnet/shortcut/weights"
      }
    }
  }
  attr {
    key: "_output_shapes"
    value {
      list {
        shape {
        }
      }
    }
  }
  attr {
    key: "dtype"
    value {
      type: DT_FLOAT
    }
  }
  attr {
    key: "value"
    value {
      tensor {
        dtype: DT_FLOAT
        tensor_shape {
        }
        float_val: 0.0
      }
    }
  }
}
node {
  name: "module/wide_resnet/shortcut/weights/Initializer/truncated_normal/stddev"
  op: "Const"
  attr {
    key: "_class"
    value {
      list {
        s: "loc:@module/wide_resnet/shortcut/weights"
      }
    }
  }
  attr {
    key: "_output_shapes"
    value {
      list {
        shape {
        }
      }
    }
  }
  attr {
    key: "dtype"
    value {
      type: DT_FLOAT
    }
  }
  attr {
    key: "value"
    value {
      tensor {
        dtype: DT_FLOAT
        tensor_shape {
        }
        float_val: 0.40311288833618164
      }
    }
  }
}
node {
  name: "module/wide_resnet/shortcut/weights/Initializer/truncated_normal/TruncatedNormal"
  op: "TruncatedNormal"
  input: "module/wide_resnet/shortcut/weights/Initializer/truncated_normal/shape"
  attr {
    key: "T"
    value {
      type: DT_INT32
    }
  }
  attr {
    key: "_class"
    value {
      list {
        s: "loc:@module/wide_resnet/shortcut/weights"
      }
    }
  }
  attr {
    key: "_output_shapes"
    value {
      list {
        shape {
          dim {
            size: 1
          }
          dim {
            size: 1
          }
          dim {
            size: 1
          }
          dim {
            size: 16
          }
          dim {
            size: 32
          }
        }
      }
    }
  }
  attr {
    key: "dtype"
    value {
      type: DT_FLOAT
    }
  }
  attr {
    key: "seed"
    value {
      i: 0
    }
  }
  attr {
    key: "seed2"
    value {
      i: 0
    }
  }
}
node {
  name: "module/wide_resnet/shortcut/weights/Initializer/truncated_normal/mul"
  op: "Mul"
  input: "module/wide_resnet/shortcut/weights/Initializer/truncated_normal/TruncatedNormal"
  input: "module/wide_resnet/shortcut/weights/Initializer/truncated_normal/stddev"
  attr {
    key: "T"
    value {
      type: DT_FLOAT
    }
  }
  attr {
    key: "_class"
    value {
      list {
        s: "loc:@module/wide_resnet/shortcut/weights"
      }
    }
  }
  attr {
    key: "_output_shapes"
    value {
      list {
        shape {
          dim {
            size: 1
          }
          dim {
            size: 1
          }
          dim {
            size: 1
          }
          dim {
            size: 16
          }
          dim {
            size: 32
          }
        }
      }
    }
  }
}
node {
  name: "module/wide_resnet/shortcut/weights/Initializer/truncated_normal"
  op: "Add"
  input: "module/wide_resnet/shortcut/weights/Initializer/truncated_normal/mul"
  input: "module/wide_resnet/shortcut/weights/Initializer/truncated_normal/mean"
  attr {
    key: "T"
    value {
      type: DT_FLOAT
    }
  }
  attr {
    key: "_class"
    value {
      list {
        s: "loc:@module/wide_resnet/shortcut/weights"
      }
    }
  }
  attr {
    key: "_output_shapes"
    value {
      list {
        shape {
          dim {
            size: 1
          }
          dim {
            size: 1
          }
          dim {
            size: 1
          }
          dim {
            size: 16
          }
          dim {
            size: 32
          }
        }
      }
    }
  }
}
node {
  name: "module/wide_resnet/shortcut/weights"
  op: "VarHandleOp"
  attr {
    key: "_class"
    value {
      list {
        s: "loc:@module/wide_resnet/shortcut/weights"
      }
    }
  }
  attr {
    key: "_output_shapes"
    value {
      list {
        shape {
        }
      }
    }
  }
  attr {
    key: "container"
    value {
      s: ""
    }
  }
  attr {
    key: "dtype"
    value {
      type: DT_FLOAT
    }
  }
  attr {
    key: "shape"
    value {
      shape {
        dim {
          size: 1
        }
        dim {
          size: 1
        }
        dim {
          size: 1
        }
        dim {
          size: 16
        }
        dim {
          size: 32
        }
      }
    }
  }
  attr {
    key: "shared_name"
    value {
      s: "module/wide_resnet/shortcut/weights"
    }
  }
}
node {
  name: "module/wide_resnet/shortcut/weights/IsInitialized/VarIsInitializedOp"
  op: "VarIsInitializedOp"
  input: "module/wide_resnet/shortcut/weights"
  attr {
    key: "_output_shapes"
    value {
      list {
        shape {
        }
      }
    }
  }
}
node {
  name: "module/wide_resnet/shortcut/weights/Assign"
  op: "AssignVariableOp"
  input: "module/wide_resnet/shortcut/weights"
  input: "module/wide_resnet/shortcut/weights/Initializer/truncated_normal"
  attr {
    key: "_class"
    value {
      list {
        s: "loc:@module/wide_resnet/shortcut/weights"
      }
    }
  }
  attr {
    key: "dtype"
    value {
      type: DT_FLOAT
    }
  }
}
node {
  name: "module/wide_resnet/shortcut/weights/Read/ReadVariableOp"
  op: "ReadVariableOp"
  input: "module/wide_resnet/shortcut/weights"
  attr {
    key: "_class"
    value {
      list {
        s: "loc:@module/wide_resnet/shortcut/weights"
      }
    }
  }
  attr {
    key: "_output_shapes"
    value {
      list {
        shape {
          dim {
            size: 1
          }
          dim {
            size: 1
          }
          dim {
            size: 1
          }
          dim {
            size: 16
          }
          dim {
            size: 32
          }
        }
      }
    }
  }
  attr {
    key: "dtype"
    value {
      type: DT_FLOAT
    }
  }
}
node {
  name: "module/wide_resnet/shortcut/biases/Initializer/zeros"
  op: "Const"
  attr {
    key: "_class"
    value {
      list {
        s: "loc:@module/wide_resnet/shortcut/biases"
      }
    }
  }
  attr {
    key: "_output_shapes"
    value {
      list {
        shape {
          dim {
            size: 32
          }
        }
      }
    }
  }
  attr {
    key: "dtype"
    value {
      type: DT_FLOAT
    }
  }
  attr {
    key: "value"
    value {
      tensor {
        dtype: DT_FLOAT
        tensor_shape {
          dim {
            size: 32
          }
        }
        float_val: 0.0
      }
    }
  }
}
node {
  name: "module/wide_resnet/shortcut/biases"
  op: "VarHandleOp"
  attr {
    key: "_class"
    value {
      list {
        s: "loc:@module/wide_resnet/shortcut/biases"
      }
    }
  }
  attr {
    key: "_output_shapes"
    value {
      list {
        shape {
        }
      }
    }
  }
  attr {
    key: "container"
    value {
      s: ""
    }
  }
  attr {
    key: "dtype"
    value {
      type: DT_FLOAT
    }
  }
  attr {
    key: "shape"
    value {
      shape {
        dim {
          size: 32
        }
      }
    }
  }
  attr {
    key: "shared_name"
    value {
      s: "module/wide_resnet/shortcut/biases"
    }
  }
}
node {
  name: "module/wide_resnet/shortcut/biases/IsInitialized/VarIsInitializedOp"
  op: "VarIsInitializedOp"
  input: "module/wide_resnet/shortcut/biases"
  attr {
    key: "_output_shapes"
    value {
      list {
        shape {
        }
      }
    }
  }
}
node {
  name: "module/wide_resnet/shortcut/biases/Assign"
  op: "AssignVariableOp"
  input: "module/wide_resnet/shortcut/biases"
  input: "module/wide_resnet/shortcut/biases/Initializer/zeros"
  attr {
    key: "_class"
    value {
      list {
        s: "loc:@module/wide_resnet/shortcut/biases"
      }
    }
  }
  attr {
    key: "dtype"
    value {
      type: DT_FLOAT
    }
  }
}
node {
  name: "module/wide_resnet/shortcut/biases/Read/ReadVariableOp"
  op: "ReadVariableOp"
  input: "module/wide_resnet/shortcut/biases"
  attr {
    key: "_class"
    value {
      list {
        s: "loc:@module/wide_resnet/shortcut/biases"
      }
    }
  }
  attr {
    key: "_output_shapes"
    value {
      list {
        shape {
          dim {
            size: 32
          }
        }
      }
    }
  }
  attr {
    key: "dtype"
    value {
      type: DT_FLOAT
    }
  }
}
node {
  name: "module/wide_resnet/shortcut/dilation_rate"
  op: "Const"
  attr {
    key: "_output_shapes"
    value {
      list {
        shape {
          dim {
            size: 3
          }
        }
      }
    }
  }
  attr {
    key: "dtype"
    value {
      type: DT_INT32
    }
  }
  attr {
    key: "value"
    value {
      tensor {
        dtype: DT_INT32
        tensor_shape {
          dim {
            size: 3
          }
        }
        tensor_content: "\001\000\000\000\001\000\000\000\001\000\000\000"
      }
    }
  }
}
node {
  name: "module/wide_resnet/shortcut/Conv3D/ReadVariableOp"
  op: "ReadVariableOp"
  input: "module/wide_resnet/shortcut/weights"
  attr {
    key: "_output_shapes"
    value {
      list {
        shape {
          dim {
            size: 1
          }
          dim {
            size: 1
          }
          dim {
            size: 1
          }
          dim {
            size: 16
          }
          dim {
            size: 32
          }
        }
      }
    }
  }
  attr {
    key: "dtype"
    value {
      type: DT_FLOAT
    }
  }
}
node {
  name: "module/wide_resnet/shortcut/Conv3D"
  op: "Conv3D"
  input: "module/wide_resnet/LeakyRelu"
  input: "module/wide_resnet/shortcut/Conv3D/ReadVariableOp"
  attr {
    key: "T"
    value {
      type: DT_FLOAT
    }
  }
  attr {
    key: "_output_shapes"
    value {
      list {
        shape {
          dim {
            size: -1
          }
          dim {
            size: -1
          }
          dim {
            size: -1
          }
          dim {
            size: -1
          }
          dim {
            size: 32
          }
        }
      }
    }
  }
  attr {
    key: "data_format"
    value {
      s: "NDHWC"
    }
  }
  attr {
    key: "dilations"
    value {
      list {
        i: 1
        i: 1
        i: 1
        i: 1
        i: 1
      }
    }
  }
  attr {
    key: "padding"
    value {
      s: "SAME"
    }
  }
  attr {
    key: "strides"
    value {
      list {
        i: 1
        i: 1
        i: 1
        i: 1
        i: 1
      }
    }
  }
}
node {
  name: "module/wide_resnet/shortcut/BiasAdd/ReadVariableOp"
  op: "ReadVariableOp"
  input: "module/wide_resnet/shortcut/biases"
  attr {
    key: "_output_shapes"
    value {
      list {
        shape {
          dim {
            size: 32
          }
        }
      }
    }
  }
  attr {
    key: "dtype"
    value {
      type: DT_FLOAT
    }
  }
}
node {
  name: "module/wide_resnet/shortcut/BiasAdd"
  op: "BiasAdd"
  input: "module/wide_resnet/shortcut/Conv3D"
  input: "module/wide_resnet/shortcut/BiasAdd/ReadVariableOp"
  attr {
    key: "T"
    value {
      type: DT_FLOAT
    }
  }
  attr {
    key: "_output_shapes"
    value {
      list {
        shape {
          dim {
            size: -1
          }
          dim {
            size: -1
          }
          dim {
            size: -1
          }
          dim {
            size: -1
          }
          dim {
            size: 32
          }
        }
      }
    }
  }
  attr {
    key: "data_format"
    value {
      s: "NHWC"
    }
  }
}
node {
  name: "module/wide_resnet/res1/weights/Initializer/truncated_normal/shape"
  op: "Const"
  attr {
    key: "_class"
    value {
      list {
        s: "loc:@module/wide_resnet/res1/weights"
      }
    }
  }
  attr {
    key: "_output_shapes"
    value {
      list {
        shape {
          dim {
            size: 5
          }
        }
      }
    }
  }
  attr {
    key: "dtype"
    value {
      type: DT_INT32
    }
  }
  attr {
    key: "value"
    value {
      tensor {
        dtype: DT_INT32
        tensor_shape {
          dim {
            size: 5
          }
        }
        tensor_content: "\003\000\000\000\003\000\000\000\003\000\000\000\020\000\000\000@\000\000\000"
      }
    }
  }
}
node {
  name: "module/wide_resnet/res1/weights/Initializer/truncated_normal/mean"
  op: "Const"
  attr {
    key: "_class"
    value {
      list {
        s: "loc:@module/wide_resnet/res1/weights"
      }
    }
  }
  attr {
    key: "_output_shapes"
    value {
      list {
        shape {
        }
      }
    }
  }
  attr {
    key: "dtype"
    value {
      type: DT_FLOAT
    }
  }
  attr {
    key: "value"
    value {
      tensor {
        dtype: DT_FLOAT
        tensor_shape {
        }
        float_val: 0.0
      }
    }
  }
}
node {
  name: "module/wide_resnet/res1/weights/Initializer/truncated_normal/stddev"
  op: "Const"
  attr {
    key: "_class"
    value {
      list {
        s: "loc:@module/wide_resnet/res1/weights"
      }
    }
  }
  attr {
    key: "_output_shapes"
    value {
      list {
        shape {
        }
      }
    }
  }
  attr {
    key: "dtype"
    value {
      type: DT_FLOAT
    }
  }
  attr {
    key: "value"
    value {
      tensor {
        dtype: DT_FLOAT
        tensor_shape {
        }
        float_val: 0.07757911086082458
      }
    }
  }
}
node {
  name: "module/wide_resnet/res1/weights/Initializer/truncated_normal/TruncatedNormal"
  op: "TruncatedNormal"
  input: "module/wide_resnet/res1/weights/Initializer/truncated_normal/shape"
  attr {
    key: "T"
    value {
      type: DT_INT32
    }
  }
  attr {
    key: "_class"
    value {
      list {
        s: "loc:@module/wide_resnet/res1/weights"
      }
    }
  }
  attr {
    key: "_output_shapes"
    value {
      list {
        shape {
          dim {
            size: 3
          }
          dim {
            size: 3
          }
          dim {
            size: 3
          }
          dim {
            size: 16
          }
          dim {
            size: 64
          }
        }
      }
    }
  }
  attr {
    key: "dtype"
    value {
      type: DT_FLOAT
    }
  }
  attr {
    key: "seed"
    value {
      i: 0
    }
  }
  attr {
    key: "seed2"
    value {
      i: 0
    }
  }
}
node {
  name: "module/wide_resnet/res1/weights/Initializer/truncated_normal/mul"
  op: "Mul"
  input: "module/wide_resnet/res1/weights/Initializer/truncated_normal/TruncatedNormal"
  input: "module/wide_resnet/res1/weights/Initializer/truncated_normal/stddev"
  attr {
    key: "T"
    value {
      type: DT_FLOAT
    }
  }
  attr {
    key: "_class"
    value {
      list {
        s: "loc:@module/wide_resnet/res1/weights"
      }
    }
  }
  attr {
    key: "_output_shapes"
    value {
      list {
        shape {
          dim {
            size: 3
          }
          dim {
            size: 3
          }
          dim {
            size: 3
          }
          dim {
            size: 16
          }
          dim {
            size: 64
          }
        }
      }
    }
  }
}
node {
  name: "module/wide_resnet/res1/weights/Initializer/truncated_normal"
  op: "Add"
  input: "module/wide_resnet/res1/weights/Initializer/truncated_normal/mul"
  input: "module/wide_resnet/res1/weights/Initializer/truncated_normal/mean"
  attr {
    key: "T"
    value {
      type: DT_FLOAT
    }
  }
  attr {
    key: "_class"
    value {
      list {
        s: "loc:@module/wide_resnet/res1/weights"
      }
    }
  }
  attr {
    key: "_output_shapes"
    value {
      list {
        shape {
          dim {
            size: 3
          }
          dim {
            size: 3
          }
          dim {
            size: 3
          }
          dim {
            size: 16
          }
          dim {
            size: 64
          }
        }
      }
    }
  }
}
node {
  name: "module/wide_resnet/res1/weights"
  op: "VarHandleOp"
  attr {
    key: "_class"
    value {
      list {
        s: "loc:@module/wide_resnet/res1/weights"
      }
    }
  }
  attr {
    key: "_output_shapes"
    value {
      list {
        shape {
        }
      }
    }
  }
  attr {
    key: "container"
    value {
      s: ""
    }
  }
  attr {
    key: "dtype"
    value {
      type: DT_FLOAT
    }
  }
  attr {
    key: "shape"
    value {
      shape {
        dim {
          size: 3
        }
        dim {
          size: 3
        }
        dim {
          size: 3
        }
        dim {
          size: 16
        }
        dim {
          size: 64
        }
      }
    }
  }
  attr {
    key: "shared_name"
    value {
      s: "module/wide_resnet/res1/weights"
    }
  }
}
node {
  name: "module/wide_resnet/res1/weights/IsInitialized/VarIsInitializedOp"
  op: "VarIsInitializedOp"
  input: "module/wide_resnet/res1/weights"
  attr {
    key: "_output_shapes"
    value {
      list {
        shape {
        }
      }
    }
  }
}
node {
  name: "module/wide_resnet/res1/weights/Assign"
  op: "AssignVariableOp"
  input: "module/wide_resnet/res1/weights"
  input: "module/wide_resnet/res1/weights/Initializer/truncated_normal"
  attr {
    key: "_class"
    value {
      list {
        s: "loc:@module/wide_resnet/res1/weights"
      }
    }
  }
  attr {
    key: "dtype"
    value {
      type: DT_FLOAT
    }
  }
}
node {
  name: "module/wide_resnet/res1/weights/Read/ReadVariableOp"
  op: "ReadVariableOp"
  input: "module/wide_resnet/res1/weights"
  attr {
    key: "_class"
    value {
      list {
        s: "loc:@module/wide_resnet/res1/weights"
      }
    }
  }
  attr {
    key: "_output_shapes"
    value {
      list {
        shape {
          dim {
            size: 3
          }
          dim {
            size: 3
          }
          dim {
            size: 3
          }
          dim {
            size: 16
          }
          dim {
            size: 64
          }
        }
      }
    }
  }
  attr {
    key: "dtype"
    value {
      type: DT_FLOAT
    }
  }
}
node {
  name: "module/wide_resnet/res1/dilation_rate"
  op: "Const"
  attr {
    key: "_output_shapes"
    value {
      list {
        shape {
          dim {
            size: 3
          }
        }
      }
    }
  }
  attr {
    key: "dtype"
    value {
      type: DT_INT32
    }
  }
  attr {
    key: "value"
    value {
      tensor {
        dtype: DT_INT32
        tensor_shape {
          dim {
            size: 3
          }
        }
        tensor_content: "\001\000\000\000\001\000\000\000\001\000\000\000"
      }
    }
  }
}
node {
  name: "module/wide_resnet/res1/Conv3D/ReadVariableOp"
  op: "ReadVariableOp"
  input: "module/wide_resnet/res1/weights"
  attr {
    key: "_output_shapes"
    value {
      list {
        shape {
          dim {
            size: 3
          }
          dim {
            size: 3
          }
          dim {
            size: 3
          }
          dim {
            size: 16
          }
          dim {
            size: 64
          }
        }
      }
    }
  }
  attr {
    key: "dtype"
    value {
      type: DT_FLOAT
    }
  }
}
node {
  name: "module/wide_resnet/res1/Conv3D"
  op: "Conv3D"
  input: "module/wide_resnet/LeakyRelu"
  input: "module/wide_resnet/res1/Conv3D/ReadVariableOp"
  attr {
    key: "T"
    value {
      type: DT_FLOAT
    }
  }
  attr {
    key: "_output_shapes"
    value {
      list {
        shape {
          dim {
            size: -1
          }
          dim {
            size: -1
          }
          dim {
            size: -1
          }
          dim {
            size: -1
          }
          dim {
            size: 64
          }
        }
      }
    }
  }
  attr {
    key: "data_format"
    value {
      s: "NDHWC"
    }
  }
  attr {
    key: "dilations"
    value {
      list {
        i: 1
        i: 1
        i: 1
        i: 1
        i: 1
      }
    }
  }
  attr {
    key: "padding"
    value {
      s: "SAME"
    }
  }
  attr {
    key: "strides"
    value {
      list {
        i: 1
        i: 1
        i: 1
        i: 1
        i: 1
      }
    }
  }
}
node {
  name: "module/wide_resnet/res1/BatchNorm/beta/Initializer/zeros"
  op: "Const"
  attr {
    key: "_class"
    value {
      list {
        s: "loc:@module/wide_resnet/res1/BatchNorm/beta"
      }
    }
  }
  attr {
    key: "_output_shapes"
    value {
      list {
        shape {
          dim {
            size: 64
          }
        }
      }
    }
  }
  attr {
    key: "dtype"
    value {
      type: DT_FLOAT
    }
  }
  attr {
    key: "value"
    value {
      tensor {
        dtype: DT_FLOAT
        tensor_shape {
          dim {
            size: 64
          }
        }
        float_val: 0.0
      }
    }
  }
}
node {
  name: "module/wide_resnet/res1/BatchNorm/beta"
  op: "VarHandleOp"
  attr {
    key: "_class"
    value {
      list {
        s: "loc:@module/wide_resnet/res1/BatchNorm/beta"
      }
    }
  }
  attr {
    key: "_output_shapes"
    value {
      list {
        shape {
        }
      }
    }
  }
  attr {
    key: "container"
    value {
      s: ""
    }
  }
  attr {
    key: "dtype"
    value {
      type: DT_FLOAT
    }
  }
  attr {
    key: "shape"
    value {
      shape {
        dim {
          size: 64
        }
      }
    }
  }
  attr {
    key: "shared_name"
    value {
      s: "module/wide_resnet/res1/BatchNorm/beta"
    }
  }
}
node {
  name: "module/wide_resnet/res1/BatchNorm/beta/IsInitialized/VarIsInitializedOp"
  op: "VarIsInitializedOp"
  input: "module/wide_resnet/res1/BatchNorm/beta"
  attr {
    key: "_output_shapes"
    value {
      list {
        shape {
        }
      }
    }
  }
}
node {
  name: "module/wide_resnet/res1/BatchNorm/beta/Assign"
  op: "AssignVariableOp"
  input: "module/wide_resnet/res1/BatchNorm/beta"
  input: "module/wide_resnet/res1/BatchNorm/beta/Initializer/zeros"
  attr {
    key: "_class"
    value {
      list {
        s: "loc:@module/wide_resnet/res1/BatchNorm/beta"
      }
    }
  }
  attr {
    key: "dtype"
    value {
      type: DT_FLOAT
    }
  }
}
node {
  name: "module/wide_resnet/res1/BatchNorm/beta/Read/ReadVariableOp"
  op: "ReadVariableOp"
  input: "module/wide_resnet/res1/BatchNorm/beta"
  attr {
    key: "_class"
    value {
      list {
        s: "loc:@module/wide_resnet/res1/BatchNorm/beta"
      }
    }
  }
  attr {
    key: "_output_shapes"
    value {
      list {
        shape {
          dim {
            size: 64
          }
        }
      }
    }
  }
  attr {
    key: "dtype"
    value {
      type: DT_FLOAT
    }
  }
}
node {
  name: "module/wide_resnet/res1/BatchNorm/moving_mean/Initializer/zeros"
  op: "Const"
  attr {
    key: "_class"
    value {
      list {
        s: "loc:@module/wide_resnet/res1/BatchNorm/moving_mean"
      }
    }
  }
  attr {
    key: "_output_shapes"
    value {
      list {
        shape {
          dim {
            size: 64
          }
        }
      }
    }
  }
  attr {
    key: "dtype"
    value {
      type: DT_FLOAT
    }
  }
  attr {
    key: "value"
    value {
      tensor {
        dtype: DT_FLOAT
        tensor_shape {
          dim {
            size: 64
          }
        }
        float_val: 0.0
      }
    }
  }
}
node {
  name: "module/wide_resnet/res1/BatchNorm/moving_mean"
  op: "VarHandleOp"
  attr {
    key: "_class"
    value {
      list {
        s: "loc:@module/wide_resnet/res1/BatchNorm/moving_mean"
      }
    }
  }
  attr {
    key: "_output_shapes"
    value {
      list {
        shape {
        }
      }
    }
  }
  attr {
    key: "container"
    value {
      s: ""
    }
  }
  attr {
    key: "dtype"
    value {
      type: DT_FLOAT
    }
  }
  attr {
    key: "shape"
    value {
      shape {
        dim {
          size: 64
        }
      }
    }
  }
  attr {
    key: "shared_name"
    value {
      s: "module/wide_resnet/res1/BatchNorm/moving_mean"
    }
  }
}
node {
  name: "module/wide_resnet/res1/BatchNorm/moving_mean/IsInitialized/VarIsInitializedOp"
  op: "VarIsInitializedOp"
  input: "module/wide_resnet/res1/BatchNorm/moving_mean"
  attr {
    key: "_output_shapes"
    value {
      list {
        shape {
        }
      }
    }
  }
}
node {
  name: "module/wide_resnet/res1/BatchNorm/moving_mean/Assign"
  op: "AssignVariableOp"
  input: "module/wide_resnet/res1/BatchNorm/moving_mean"
  input: "module/wide_resnet/res1/BatchNorm/moving_mean/Initializer/zeros"
  attr {
    key: "_class"
    value {
      list {
        s: "loc:@module/wide_resnet/res1/BatchNorm/moving_mean"
      }
    }
  }
  attr {
    key: "dtype"
    value {
      type: DT_FLOAT
    }
  }
}
node {
  name: "module/wide_resnet/res1/BatchNorm/moving_mean/Read/ReadVariableOp"
  op: "ReadVariableOp"
  input: "module/wide_resnet/res1/BatchNorm/moving_mean"
  attr {
    key: "_class"
    value {
      list {
        s: "loc:@module/wide_resnet/res1/BatchNorm/moving_mean"
      }
    }
  }
  attr {
    key: "_output_shapes"
    value {
      list {
        shape {
          dim {
            size: 64
          }
        }
      }
    }
  }
  attr {
    key: "dtype"
    value {
      type: DT_FLOAT
    }
  }
}
node {
  name: "module/wide_resnet/res1/BatchNorm/moving_variance/Initializer/ones"
  op: "Const"
  attr {
    key: "_class"
    value {
      list {
        s: "loc:@module/wide_resnet/res1/BatchNorm/moving_variance"
      }
    }
  }
  attr {
    key: "_output_shapes"
    value {
      list {
        shape {
          dim {
            size: 64
          }
        }
      }
    }
  }
  attr {
    key: "dtype"
    value {
      type: DT_FLOAT
    }
  }
  attr {
    key: "value"
    value {
      tensor {
        dtype: DT_FLOAT
        tensor_shape {
          dim {
            size: 64
          }
        }
        float_val: 1.0
      }
    }
  }
}
node {
  name: "module/wide_resnet/res1/BatchNorm/moving_variance"
  op: "VarHandleOp"
  attr {
    key: "_class"
    value {
      list {
        s: "loc:@module/wide_resnet/res1/BatchNorm/moving_variance"
      }
    }
  }
  attr {
    key: "_output_shapes"
    value {
      list {
        shape {
        }
      }
    }
  }
  attr {
    key: "container"
    value {
      s: ""
    }
  }
  attr {
    key: "dtype"
    value {
      type: DT_FLOAT
    }
  }
  attr {
    key: "shape"
    value {
      shape {
        dim {
          size: 64
        }
      }
    }
  }
  attr {
    key: "shared_name"
    value {
      s: "module/wide_resnet/res1/BatchNorm/moving_variance"
    }
  }
}
node {
  name: "module/wide_resnet/res1/BatchNorm/moving_variance/IsInitialized/VarIsInitializedOp"
  op: "VarIsInitializedOp"
  input: "module/wide_resnet/res1/BatchNorm/moving_variance"
  attr {
    key: "_output_shapes"
    value {
      list {
        shape {
        }
      }
    }
  }
}
node {
  name: "module/wide_resnet/res1/BatchNorm/moving_variance/Assign"
  op: "AssignVariableOp"
  input: "module/wide_resnet/res1/BatchNorm/moving_variance"
  input: "module/wide_resnet/res1/BatchNorm/moving_variance/Initializer/ones"
  attr {
    key: "_class"
    value {
      list {
        s: "loc:@module/wide_resnet/res1/BatchNorm/moving_variance"
      }
    }
  }
  attr {
    key: "dtype"
    value {
      type: DT_FLOAT
    }
  }
}
node {
  name: "module/wide_resnet/res1/BatchNorm/moving_variance/Read/ReadVariableOp"
  op: "ReadVariableOp"
  input: "module/wide_resnet/res1/BatchNorm/moving_variance"
  attr {
    key: "_class"
    value {
      list {
        s: "loc:@module/wide_resnet/res1/BatchNorm/moving_variance"
      }
    }
  }
  attr {
    key: "_output_shapes"
    value {
      list {
        shape {
          dim {
            size: 64
          }
        }
      }
    }
  }
  attr {
    key: "dtype"
    value {
      type: DT_FLOAT
    }
  }
}
node {
  name: "module/wide_resnet/res1/BatchNorm/moments/mean/reduction_indices"
  op: "Const"
  attr {
    key: "_output_shapes"
    value {
      list {
        shape {
          dim {
            size: 4
          }
        }
      }
    }
  }
  attr {
    key: "dtype"
    value {
      type: DT_INT32
    }
  }
  attr {
    key: "value"
    value {
      tensor {
        dtype: DT_INT32
        tensor_shape {
          dim {
            size: 4
          }
        }
        tensor_content: "\000\000\000\000\001\000\000\000\002\000\000\000\003\000\000\000"
      }
    }
  }
}
node {
  name: "module/wide_resnet/res1/BatchNorm/moments/mean"
  op: "Mean"
  input: "module/wide_resnet/res1/Conv3D"
  input: "module/wide_resnet/res1/BatchNorm/moments/mean/reduction_indices"
  attr {
    key: "T"
    value {
      type: DT_FLOAT
    }
  }
  attr {
    key: "Tidx"
    value {
      type: DT_INT32
    }
  }
  attr {
    key: "_output_shapes"
    value {
      list {
        shape {
          dim {
            size: 1
          }
          dim {
            size: 1
          }
          dim {
            size: 1
          }
          dim {
            size: 1
          }
          dim {
            size: 64
          }
        }
      }
    }
  }
  attr {
    key: "keep_dims"
    value {
      b: true
    }
  }
}
node {
  name: "module/wide_resnet/res1/BatchNorm/moments/StopGradient"
  op: "StopGradient"
  input: "module/wide_resnet/res1/BatchNorm/moments/mean"
  attr {
    key: "T"
    value {
      type: DT_FLOAT
    }
  }
  attr {
    key: "_output_shapes"
    value {
      list {
        shape {
          dim {
            size: 1
          }
          dim {
            size: 1
          }
          dim {
            size: 1
          }
          dim {
            size: 1
          }
          dim {
            size: 64
          }
        }
      }
    }
  }
}
node {
  name: "module/wide_resnet/res1/BatchNorm/moments/SquaredDifference"
  op: "SquaredDifference"
  input: "module/wide_resnet/res1/Conv3D"
  input: "module/wide_resnet/res1/BatchNorm/moments/StopGradient"
  attr {
    key: "T"
    value {
      type: DT_FLOAT
    }
  }
  attr {
    key: "_output_shapes"
    value {
      list {
        shape {
          dim {
            size: -1
          }
          dim {
            size: -1
          }
          dim {
            size: -1
          }
          dim {
            size: -1
          }
          dim {
            size: 64
          }
        }
      }
    }
  }
}
node {
  name: "module/wide_resnet/res1/BatchNorm/moments/variance/reduction_indices"
  op: "Const"
  attr {
    key: "_output_shapes"
    value {
      list {
        shape {
          dim {
            size: 4
          }
        }
      }
    }
  }
  attr {
    key: "dtype"
    value {
      type: DT_INT32
    }
  }
  attr {
    key: "value"
    value {
      tensor {
        dtype: DT_INT32
        tensor_shape {
          dim {
            size: 4
          }
        }
        tensor_content: "\000\000\000\000\001\000\000\000\002\000\000\000\003\000\000\000"
      }
    }
  }
}
node {
  name: "module/wide_resnet/res1/BatchNorm/moments/variance"
  op: "Mean"
  input: "module/wide_resnet/res1/BatchNorm/moments/SquaredDifference"
  input: "module/wide_resnet/res1/BatchNorm/moments/variance/reduction_indices"
  attr {
    key: "T"
    value {
      type: DT_FLOAT
    }
  }
  attr {
    key: "Tidx"
    value {
      type: DT_INT32
    }
  }
  attr {
    key: "_output_shapes"
    value {
      list {
        shape {
          dim {
            size: 1
          }
          dim {
            size: 1
          }
          dim {
            size: 1
          }
          dim {
            size: 1
          }
          dim {
            size: 64
          }
        }
      }
    }
  }
  attr {
    key: "keep_dims"
    value {
      b: true
    }
  }
}
node {
  name: "module/wide_resnet/res1/BatchNorm/moments/Squeeze"
  op: "Squeeze"
  input: "module/wide_resnet/res1/BatchNorm/moments/mean"
  attr {
    key: "T"
    value {
      type: DT_FLOAT
    }
  }
  attr {
    key: "_output_shapes"
    value {
      list {
        shape {
          dim {
            size: 64
          }
        }
      }
    }
  }
  attr {
    key: "squeeze_dims"
    value {
      list {
        i: 0
        i: 1
        i: 2
        i: 3
      }
    }
  }
}
node {
  name: "module/wide_resnet/res1/BatchNorm/moments/Squeeze_1"
  op: "Squeeze"
  input: "module/wide_resnet/res1/BatchNorm/moments/variance"
  attr {
    key: "T"
    value {
      type: DT_FLOAT
    }
  }
  attr {
    key: "_output_shapes"
    value {
      list {
        shape {
          dim {
            size: 64
          }
        }
      }
    }
  }
  attr {
    key: "squeeze_dims"
    value {
      list {
        i: 0
        i: 1
        i: 2
        i: 3
      }
    }
  }
}
node {
  name: "module/wide_resnet/res1/BatchNorm/AssignMovingAvg/Read/ReadVariableOp"
  op: "ReadVariableOp"
  input: "module/wide_resnet/res1/BatchNorm/moving_mean"
  attr {
    key: "_output_shapes"
    value {
      list {
        shape {
          dim {
            size: 64
          }
        }
      }
    }
  }
  attr {
    key: "dtype"
    value {
      type: DT_FLOAT
    }
  }
}
node {
  name: "module/wide_resnet/res1/BatchNorm/AssignMovingAvg/Identity"
  op: "Identity"
  input: "module/wide_resnet/res1/BatchNorm/AssignMovingAvg/Read/ReadVariableOp"
  attr {
    key: "T"
    value {
      type: DT_FLOAT
    }
  }
  attr {
    key: "_output_shapes"
    value {
      list {
        shape {
          dim {
            size: 64
          }
        }
      }
    }
  }
}
node {
  name: "module/wide_resnet/res1/BatchNorm/AssignMovingAvg/decay"
  op: "Const"
  attr {
    key: "_class"
    value {
      list {
        s: "loc:@module/wide_resnet/res1/BatchNorm/AssignMovingAvg/Read/ReadVariableOp"
      }
    }
  }
  attr {
    key: "_output_shapes"
    value {
      list {
        shape {
        }
      }
    }
  }
  attr {
    key: "dtype"
    value {
      type: DT_FLOAT
    }
  }
  attr {
    key: "value"
    value {
      tensor {
        dtype: DT_FLOAT
        tensor_shape {
        }
        float_val: 0.0010000000474974513
      }
    }
  }
}
node {
  name: "module/wide_resnet/res1/BatchNorm/AssignMovingAvg/ReadVariableOp"
  op: "ReadVariableOp"
  input: "module/wide_resnet/res1/BatchNorm/moving_mean"
  attr {
    key: "_output_shapes"
    value {
      list {
        shape {
          dim {
            size: 64
          }
        }
      }
    }
  }
  attr {
    key: "dtype"
    value {
      type: DT_FLOAT
    }
  }
}
node {
  name: "module/wide_resnet/res1/BatchNorm/AssignMovingAvg/sub"
  op: "Sub"
  input: "module/wide_resnet/res1/BatchNorm/AssignMovingAvg/ReadVariableOp"
  input: "module/wide_resnet/res1/BatchNorm/moments/Squeeze"
  attr {
    key: "T"
    value {
      type: DT_FLOAT
    }
  }
  attr {
    key: "_class"
    value {
      list {
        s: "loc:@module/wide_resnet/res1/BatchNorm/AssignMovingAvg/Read/ReadVariableOp"
      }
    }
  }
  attr {
    key: "_output_shapes"
    value {
      list {
        shape {
          dim {
            size: 64
          }
        }
      }
    }
  }
}
node {
  name: "module/wide_resnet/res1/BatchNorm/AssignMovingAvg/mul"
  op: "Mul"
  input: "module/wide_resnet/res1/BatchNorm/AssignMovingAvg/sub"
  input: "module/wide_resnet/res1/BatchNorm/AssignMovingAvg/decay"
  attr {
    key: "T"
    value {
      type: DT_FLOAT
    }
  }
  attr {
    key: "_class"
    value {
      list {
        s: "loc:@module/wide_resnet/res1/BatchNorm/AssignMovingAvg/Read/ReadVariableOp"
      }
    }
  }
  attr {
    key: "_output_shapes"
    value {
      list {
        shape {
          dim {
            size: 64
          }
        }
      }
    }
  }
}
node {
  name: "module/wide_resnet/res1/BatchNorm/AssignMovingAvg/AssignSubVariableOp"
  op: "AssignSubVariableOp"
  input: "module/wide_resnet/res1/BatchNorm/moving_mean"
  input: "module/wide_resnet/res1/BatchNorm/AssignMovingAvg/mul"
  attr {
    key: "_class"
    value {
      list {
        s: "loc:@module/wide_resnet/res1/BatchNorm/AssignMovingAvg/Read/ReadVariableOp"
      }
    }
  }
  attr {
    key: "dtype"
    value {
      type: DT_FLOAT
    }
  }
}
node {
  name: "module/wide_resnet/res1/BatchNorm/AssignMovingAvg/ReadVariableOp_1"
  op: "ReadVariableOp"
  input: "module/wide_resnet/res1/BatchNorm/moving_mean"
  input: "^module/wide_resnet/res1/BatchNorm/AssignMovingAvg/AssignSubVariableOp"
  attr {
    key: "_class"
    value {
      list {
        s: "loc:@module/wide_resnet/res1/BatchNorm/AssignMovingAvg/Read/ReadVariableOp"
      }
    }
  }
  attr {
    key: "_output_shapes"
    value {
      list {
        shape {
          dim {
            size: 64
          }
        }
      }
    }
  }
  attr {
    key: "dtype"
    value {
      type: DT_FLOAT
    }
  }
}
node {
  name: "module/wide_resnet/res1/BatchNorm/AssignMovingAvg_1/Read/ReadVariableOp"
  op: "ReadVariableOp"
  input: "module/wide_resnet/res1/BatchNorm/moving_variance"
  attr {
    key: "_output_shapes"
    value {
      list {
        shape {
          dim {
            size: 64
          }
        }
      }
    }
  }
  attr {
    key: "dtype"
    value {
      type: DT_FLOAT
    }
  }
}
node {
  name: "module/wide_resnet/res1/BatchNorm/AssignMovingAvg_1/Identity"
  op: "Identity"
  input: "module/wide_resnet/res1/BatchNorm/AssignMovingAvg_1/Read/ReadVariableOp"
  attr {
    key: "T"
    value {
      type: DT_FLOAT
    }
  }
  attr {
    key: "_output_shapes"
    value {
      list {
        shape {
          dim {
            size: 64
          }
        }
      }
    }
  }
}
node {
  name: "module/wide_resnet/res1/BatchNorm/AssignMovingAvg_1/decay"
  op: "Const"
  attr {
    key: "_class"
    value {
      list {
        s: "loc:@module/wide_resnet/res1/BatchNorm/AssignMovingAvg_1/Read/ReadVariableOp"
      }
    }
  }
  attr {
    key: "_output_shapes"
    value {
      list {
        shape {
        }
      }
    }
  }
  attr {
    key: "dtype"
    value {
      type: DT_FLOAT
    }
  }
  attr {
    key: "value"
    value {
      tensor {
        dtype: DT_FLOAT
        tensor_shape {
        }
        float_val: 0.0010000000474974513
      }
    }
  }
}
node {
  name: "module/wide_resnet/res1/BatchNorm/AssignMovingAvg_1/ReadVariableOp"
  op: "ReadVariableOp"
  input: "module/wide_resnet/res1/BatchNorm/moving_variance"
  attr {
    key: "_output_shapes"
    value {
      list {
        shape {
          dim {
            size: 64
          }
        }
      }
    }
  }
  attr {
    key: "dtype"
    value {
      type: DT_FLOAT
    }
  }
}
node {
  name: "module/wide_resnet/res1/BatchNorm/AssignMovingAvg_1/sub"
  op: "Sub"
  input: "module/wide_resnet/res1/BatchNorm/AssignMovingAvg_1/ReadVariableOp"
  input: "module/wide_resnet/res1/BatchNorm/moments/Squeeze_1"
  attr {
    key: "T"
    value {
      type: DT_FLOAT
    }
  }
  attr {
    key: "_class"
    value {
      list {
        s: "loc:@module/wide_resnet/res1/BatchNorm/AssignMovingAvg_1/Read/ReadVariableOp"
      }
    }
  }
  attr {
    key: "_output_shapes"
    value {
      list {
        shape {
          dim {
            size: 64
          }
        }
      }
    }
  }
}
node {
  name: "module/wide_resnet/res1/BatchNorm/AssignMovingAvg_1/mul"
  op: "Mul"
  input: "module/wide_resnet/res1/BatchNorm/AssignMovingAvg_1/sub"
  input: "module/wide_resnet/res1/BatchNorm/AssignMovingAvg_1/decay"
  attr {
    key: "T"
    value {
      type: DT_FLOAT
    }
  }
  attr {
    key: "_class"
    value {
      list {
        s: "loc:@module/wide_resnet/res1/BatchNorm/AssignMovingAvg_1/Read/ReadVariableOp"
      }
    }
  }
  attr {
    key: "_output_shapes"
    value {
      list {
        shape {
          dim {
            size: 64
          }
        }
      }
    }
  }
}
node {
  name: "module/wide_resnet/res1/BatchNorm/AssignMovingAvg_1/AssignSubVariableOp"
  op: "AssignSubVariableOp"
  input: "module/wide_resnet/res1/BatchNorm/moving_variance"
  input: "module/wide_resnet/res1/BatchNorm/AssignMovingAvg_1/mul"
  attr {
    key: "_class"
    value {
      list {
        s: "loc:@module/wide_resnet/res1/BatchNorm/AssignMovingAvg_1/Read/ReadVariableOp"
      }
    }
  }
  attr {
    key: "dtype"
    value {
      type: DT_FLOAT
    }
  }
}
node {
  name: "module/wide_resnet/res1/BatchNorm/AssignMovingAvg_1/ReadVariableOp_1"
  op: "ReadVariableOp"
  input: "module/wide_resnet/res1/BatchNorm/moving_variance"
  input: "^module/wide_resnet/res1/BatchNorm/AssignMovingAvg_1/AssignSubVariableOp"
  attr {
    key: "_class"
    value {
      list {
        s: "loc:@module/wide_resnet/res1/BatchNorm/AssignMovingAvg_1/Read/ReadVariableOp"
      }
    }
  }
  attr {
    key: "_output_shapes"
    value {
      list {
        shape {
          dim {
            size: 64
          }
        }
      }
    }
  }
  attr {
    key: "dtype"
    value {
      type: DT_FLOAT
    }
  }
}
node {
  name: "module/wide_resnet/res1/BatchNorm/batchnorm_1/add/y"
  op: "Const"
  attr {
    key: "_output_shapes"
    value {
      list {
        shape {
        }
      }
    }
  }
  attr {
    key: "dtype"
    value {
      type: DT_FLOAT
    }
  }
  attr {
    key: "value"
    value {
      tensor {
        dtype: DT_FLOAT
        tensor_shape {
        }
        float_val: 0.0010000000474974513
      }
    }
  }
}
node {
  name: "module/wide_resnet/res1/BatchNorm/batchnorm_1/add"
  op: "Add"
  input: "module/wide_resnet/res1/BatchNorm/moments/Squeeze_1"
  input: "module/wide_resnet/res1/BatchNorm/batchnorm_1/add/y"
  attr {
    key: "T"
    value {
      type: DT_FLOAT
    }
  }
  attr {
    key: "_output_shapes"
    value {
      list {
        shape {
          dim {
            size: 64
          }
        }
      }
    }
  }
}
node {
  name: "module/wide_resnet/res1/BatchNorm/batchnorm_1/Rsqrt"
  op: "Rsqrt"
  input: "module/wide_resnet/res1/BatchNorm/batchnorm_1/add"
  attr {
    key: "T"
    value {
      type: DT_FLOAT
    }
  }
  attr {
    key: "_output_shapes"
    value {
      list {
        shape {
          dim {
            size: 64
          }
        }
      }
    }
  }
}
node {
  name: "module/wide_resnet/res1/BatchNorm/batchnorm_1/mul"
  op: "Mul"
  input: "module/wide_resnet/res1/Conv3D"
  input: "module/wide_resnet/res1/BatchNorm/batchnorm_1/Rsqrt"
  attr {
    key: "T"
    value {
      type: DT_FLOAT
    }
  }
  attr {
    key: "_output_shapes"
    value {
      list {
        shape {
          dim {
            size: -1
          }
          dim {
            size: -1
          }
          dim {
            size: -1
          }
          dim {
            size: -1
          }
          dim {
            size: 64
          }
        }
      }
    }
  }
}
node {
  name: "module/wide_resnet/res1/BatchNorm/batchnorm_1/mul_1"
  op: "Mul"
  input: "module/wide_resnet/res1/BatchNorm/moments/Squeeze"
  input: "module/wide_resnet/res1/BatchNorm/batchnorm_1/Rsqrt"
  attr {
    key: "T"
    value {
      type: DT_FLOAT
    }
  }
  attr {
    key: "_output_shapes"
    value {
      list {
        shape {
          dim {
            size: 64
          }
        }
      }
    }
  }
}
node {
  name: "module/wide_resnet/res1/BatchNorm/batchnorm_1/ReadVariableOp"
  op: "ReadVariableOp"
  input: "module/wide_resnet/res1/BatchNorm/beta"
  attr {
    key: "_output_shapes"
    value {
      list {
        shape {
          dim {
            size: 64
          }
        }
      }
    }
  }
  attr {
    key: "dtype"
    value {
      type: DT_FLOAT
    }
  }
}
node {
  name: "module/wide_resnet/res1/BatchNorm/batchnorm_1/sub"
  op: "Sub"
  input: "module/wide_resnet/res1/BatchNorm/batchnorm_1/ReadVariableOp"
  input: "module/wide_resnet/res1/BatchNorm/batchnorm_1/mul_1"
  attr {
    key: "T"
    value {
      type: DT_FLOAT
    }
  }
  attr {
    key: "_output_shapes"
    value {
      list {
        shape {
          dim {
            size: 64
          }
        }
      }
    }
  }
}
node {
  name: "module/wide_resnet/res1/BatchNorm/batchnorm_1/add_1"
  op: "Add"
  input: "module/wide_resnet/res1/BatchNorm/batchnorm_1/mul"
  input: "module/wide_resnet/res1/BatchNorm/batchnorm_1/sub"
  attr {
    key: "T"
    value {
      type: DT_FLOAT
    }
  }
  attr {
    key: "_output_shapes"
    value {
      list {
        shape {
          dim {
            size: -1
          }
          dim {
            size: -1
          }
          dim {
            size: -1
          }
          dim {
            size: -1
          }
          dim {
            size: 64
          }
        }
      }
    }
  }
}
node {
  name: "module/wide_resnet/res1/LeakyRelu/alpha"
  op: "Const"
  attr {
    key: "_output_shapes"
    value {
      list {
        shape {
        }
      }
    }
  }
  attr {
    key: "dtype"
    value {
      type: DT_FLOAT
    }
  }
  attr {
    key: "value"
    value {
      tensor {
        dtype: DT_FLOAT
        tensor_shape {
        }
        float_val: 0.20000000298023224
      }
    }
  }
}
node {
  name: "module/wide_resnet/res1/LeakyRelu/mul"
  op: "Mul"
  input: "module/wide_resnet/res1/LeakyRelu/alpha"
  input: "module/wide_resnet/res1/BatchNorm/batchnorm_1/add_1"
  attr {
    key: "T"
    value {
      type: DT_FLOAT
    }
  }
  attr {
    key: "_output_shapes"
    value {
      list {
        shape {
          dim {
            size: -1
          }
          dim {
            size: -1
          }
          dim {
            size: -1
          }
          dim {
            size: -1
          }
          dim {
            size: 64
          }
        }
      }
    }
  }
}
node {
  name: "module/wide_resnet/res1/LeakyRelu"
  op: "Maximum"
  input: "module/wide_resnet/res1/LeakyRelu/mul"
  input: "module/wide_resnet/res1/BatchNorm/batchnorm_1/add_1"
  attr {
    key: "T"
    value {
      type: DT_FLOAT
    }
  }
  attr {
    key: "_output_shapes"
    value {
      list {
        shape {
          dim {
            size: -1
          }
          dim {
            size: -1
          }
          dim {
            size: -1
          }
          dim {
            size: -1
          }
          dim {
            size: 64
          }
        }
      }
    }
  }
}
node {
  name: "module/wide_resnet/Dropout/dropout_1/keep_prob"
  op: "Const"
  attr {
    key: "_output_shapes"
    value {
      list {
        shape {
        }
      }
    }
  }
  attr {
    key: "dtype"
    value {
      type: DT_FLOAT
    }
  }
  attr {
    key: "value"
    value {
      tensor {
        dtype: DT_FLOAT
        tensor_shape {
        }
        float_val: 0.949999988079071
      }
    }
  }
}
node {
  name: "module/wide_resnet/Dropout/dropout_1/Shape"
  op: "Shape"
  input: "module/wide_resnet/res1/LeakyRelu"
  attr {
    key: "T"
    value {
      type: DT_FLOAT
    }
  }
  attr {
    key: "_output_shapes"
    value {
      list {
        shape {
          dim {
            size: 5
          }
        }
      }
    }
  }
  attr {
    key: "out_type"
    value {
      type: DT_INT32
    }
  }
}
node {
  name: "module/wide_resnet/Dropout/dropout_1/random_uniform/min"
  op: "Const"
  attr {
    key: "_output_shapes"
    value {
      list {
        shape {
        }
      }
    }
  }
  attr {
    key: "dtype"
    value {
      type: DT_FLOAT
    }
  }
  attr {
    key: "value"
    value {
      tensor {
        dtype: DT_FLOAT
        tensor_shape {
        }
        float_val: 0.0
      }
    }
  }
}
node {
  name: "module/wide_resnet/Dropout/dropout_1/random_uniform/max"
  op: "Const"
  attr {
    key: "_output_shapes"
    value {
      list {
        shape {
        }
      }
    }
  }
  attr {
    key: "dtype"
    value {
      type: DT_FLOAT
    }
  }
  attr {
    key: "value"
    value {
      tensor {
        dtype: DT_FLOAT
        tensor_shape {
        }
        float_val: 1.0
      }
    }
  }
}
node {
  name: "module/wide_resnet/Dropout/dropout_1/random_uniform/RandomUniform"
  op: "RandomUniform"
  input: "module/wide_resnet/Dropout/dropout_1/Shape"
  attr {
    key: "T"
    value {
      type: DT_INT32
    }
  }
  attr {
    key: "_output_shapes"
    value {
      list {
        shape {
          dim {
            size: -1
          }
          dim {
            size: -1
          }
          dim {
            size: -1
          }
          dim {
            size: -1
          }
          dim {
            size: 64
          }
        }
      }
    }
  }
  attr {
    key: "dtype"
    value {
      type: DT_FLOAT
    }
  }
  attr {
    key: "seed"
    value {
      i: 0
    }
  }
  attr {
    key: "seed2"
    value {
      i: 0
    }
  }
}
node {
  name: "module/wide_resnet/Dropout/dropout_1/random_uniform/sub"
  op: "Sub"
  input: "module/wide_resnet/Dropout/dropout_1/random_uniform/max"
  input: "module/wide_resnet/Dropout/dropout_1/random_uniform/min"
  attr {
    key: "T"
    value {
      type: DT_FLOAT
    }
  }
  attr {
    key: "_output_shapes"
    value {
      list {
        shape {
        }
      }
    }
  }
}
node {
  name: "module/wide_resnet/Dropout/dropout_1/random_uniform/mul"
  op: "Mul"
  input: "module/wide_resnet/Dropout/dropout_1/random_uniform/RandomUniform"
  input: "module/wide_resnet/Dropout/dropout_1/random_uniform/sub"
  attr {
    key: "T"
    value {
      type: DT_FLOAT
    }
  }
  attr {
    key: "_output_shapes"
    value {
      list {
        shape {
          dim {
            size: -1
          }
          dim {
            size: -1
          }
          dim {
            size: -1
          }
          dim {
            size: -1
          }
          dim {
            size: 64
          }
        }
      }
    }
  }
}
node {
  name: "module/wide_resnet/Dropout/dropout_1/random_uniform"
  op: "Add"
  input: "module/wide_resnet/Dropout/dropout_1/random_uniform/mul"
  input: "module/wide_resnet/Dropout/dropout_1/random_uniform/min"
  attr {
    key: "T"
    value {
      type: DT_FLOAT
    }
  }
  attr {
    key: "_output_shapes"
    value {
      list {
        shape {
          dim {
            size: -1
          }
          dim {
            size: -1
          }
          dim {
            size: -1
          }
          dim {
            size: -1
          }
          dim {
            size: 64
          }
        }
      }
    }
  }
}
node {
  name: "module/wide_resnet/Dropout/dropout_1/add"
  op: "Add"
  input: "module/wide_resnet/Dropout/dropout_1/keep_prob"
  input: "module/wide_resnet/Dropout/dropout_1/random_uniform"
  attr {
    key: "T"
    value {
      type: DT_FLOAT
    }
  }
  attr {
    key: "_output_shapes"
    value {
      list {
        shape {
          dim {
            size: -1
          }
          dim {
            size: -1
          }
          dim {
            size: -1
          }
          dim {
            size: -1
          }
          dim {
            size: 64
          }
        }
      }
    }
  }
}
node {
  name: "module/wide_resnet/Dropout/dropout_1/Floor"
  op: "Floor"
  input: "module/wide_resnet/Dropout/dropout_1/add"
  attr {
    key: "T"
    value {
      type: DT_FLOAT
    }
  }
  attr {
    key: "_output_shapes"
    value {
      list {
        shape {
          dim {
            size: -1
          }
          dim {
            size: -1
          }
          dim {
            size: -1
          }
          dim {
            size: -1
          }
          dim {
            size: 64
          }
        }
      }
    }
  }
}
node {
  name: "module/wide_resnet/Dropout/dropout_1/div"
  op: "RealDiv"
  input: "module/wide_resnet/res1/LeakyRelu"
  input: "module/wide_resnet/Dropout/dropout_1/keep_prob"
  attr {
    key: "T"
    value {
      type: DT_FLOAT
    }
  }
  attr {
    key: "_output_shapes"
    value {
      list {
        shape {
          dim {
            size: -1
          }
          dim {
            size: -1
          }
          dim {
            size: -1
          }
          dim {
            size: -1
          }
          dim {
            size: 64
          }
        }
      }
    }
  }
}
node {
  name: "module/wide_resnet/Dropout/dropout_1/mul"
  op: "Mul"
  input: "module/wide_resnet/Dropout/dropout_1/div"
  input: "module/wide_resnet/Dropout/dropout_1/Floor"
  attr {
    key: "T"
    value {
      type: DT_FLOAT
    }
  }
  attr {
    key: "_output_shapes"
    value {
      list {
        shape {
          dim {
            size: -1
          }
          dim {
            size: -1
          }
          dim {
            size: -1
          }
          dim {
            size: -1
          }
          dim {
            size: 64
          }
        }
      }
    }
  }
}
node {
  name: "module/wide_resnet/res2/weights/Initializer/truncated_normal/shape"
  op: "Const"
  attr {
    key: "_class"
    value {
      list {
        s: "loc:@module/wide_resnet/res2/weights"
      }
    }
  }
  attr {
    key: "_output_shapes"
    value {
      list {
        shape {
          dim {
            size: 5
          }
        }
      }
    }
  }
  attr {
    key: "dtype"
    value {
      type: DT_INT32
    }
  }
  attr {
    key: "value"
    value {
      tensor {
        dtype: DT_INT32
        tensor_shape {
          dim {
            size: 5
          }
        }
        tensor_content: "\003\000\000\000\003\000\000\000\003\000\000\000@\000\000\000 \000\000\000"
      }
    }
  }
}
node {
  name: "module/wide_resnet/res2/weights/Initializer/truncated_normal/mean"
  op: "Const"
  attr {
    key: "_class"
    value {
      list {
        s: "loc:@module/wide_resnet/res2/weights"
      }
    }
  }
  attr {
    key: "_output_shapes"
    value {
      list {
        shape {
        }
      }
    }
  }
  attr {
    key: "dtype"
    value {
      type: DT_FLOAT
    }
  }
  attr {
    key: "value"
    value {
      tensor {
        dtype: DT_FLOAT
        tensor_shape {
        }
        float_val: 0.0
      }
    }
  }
}
node {
  name: "module/wide_resnet/res2/weights/Initializer/truncated_normal/stddev"
  op: "Const"
  attr {
    key: "_class"
    value {
      list {
        s: "loc:@module/wide_resnet/res2/weights"
      }
    }
  }
  attr {
    key: "_output_shapes"
    value {
      list {
        shape {
        }
      }
    }
  }
  attr {
    key: "dtype"
    value {
      type: DT_FLOAT
    }
  }
  attr {
    key: "value"
    value {
      tensor {
        dtype: DT_FLOAT
        tensor_shape {
        }
        float_val: 0.03878955543041229
      }
    }
  }
}
node {
  name: "module/wide_resnet/res2/weights/Initializer/truncated_normal/TruncatedNormal"
  op: "TruncatedNormal"
  input: "module/wide_resnet/res2/weights/Initializer/truncated_normal/shape"
  attr {
    key: "T"
    value {
      type: DT_INT32
    }
  }
  attr {
    key: "_class"
    value {
      list {
        s: "loc:@module/wide_resnet/res2/weights"
      }
    }
  }
  attr {
    key: "_output_shapes"
    value {
      list {
        shape {
          dim {
            size: 3
          }
          dim {
            size: 3
          }
          dim {
            size: 3
          }
          dim {
            size: 64
          }
          dim {
            size: 32
          }
        }
      }
    }
  }
  attr {
    key: "dtype"
    value {
      type: DT_FLOAT
    }
  }
  attr {
    key: "seed"
    value {
      i: 0
    }
  }
  attr {
    key: "seed2"
    value {
      i: 0
    }
  }
}
node {
  name: "module/wide_resnet/res2/weights/Initializer/truncated_normal/mul"
  op: "Mul"
  input: "module/wide_resnet/res2/weights/Initializer/truncated_normal/TruncatedNormal"
  input: "module/wide_resnet/res2/weights/Initializer/truncated_normal/stddev"
  attr {
    key: "T"
    value {
      type: DT_FLOAT
    }
  }
  attr {
    key: "_class"
    value {
      list {
        s: "loc:@module/wide_resnet/res2/weights"
      }
    }
  }
  attr {
    key: "_output_shapes"
    value {
      list {
        shape {
          dim {
            size: 3
          }
          dim {
            size: 3
          }
          dim {
            size: 3
          }
          dim {
            size: 64
          }
          dim {
            size: 32
          }
        }
      }
    }
  }
}
node {
  name: "module/wide_resnet/res2/weights/Initializer/truncated_normal"
  op: "Add"
  input: "module/wide_resnet/res2/weights/Initializer/truncated_normal/mul"
  input: "module/wide_resnet/res2/weights/Initializer/truncated_normal/mean"
  attr {
    key: "T"
    value {
      type: DT_FLOAT
    }
  }
  attr {
    key: "_class"
    value {
      list {
        s: "loc:@module/wide_resnet/res2/weights"
      }
    }
  }
  attr {
    key: "_output_shapes"
    value {
      list {
        shape {
          dim {
            size: 3
          }
          dim {
            size: 3
          }
          dim {
            size: 3
          }
          dim {
            size: 64
          }
          dim {
            size: 32
          }
        }
      }
    }
  }
}
node {
  name: "module/wide_resnet/res2/weights"
  op: "VarHandleOp"
  attr {
    key: "_class"
    value {
      list {
        s: "loc:@module/wide_resnet/res2/weights"
      }
    }
  }
  attr {
    key: "_output_shapes"
    value {
      list {
        shape {
        }
      }
    }
  }
  attr {
    key: "container"
    value {
      s: ""
    }
  }
  attr {
    key: "dtype"
    value {
      type: DT_FLOAT
    }
  }
  attr {
    key: "shape"
    value {
      shape {
        dim {
          size: 3
        }
        dim {
          size: 3
        }
        dim {
          size: 3
        }
        dim {
          size: 64
        }
        dim {
          size: 32
        }
      }
    }
  }
  attr {
    key: "shared_name"
    value {
      s: "module/wide_resnet/res2/weights"
    }
  }
}
node {
  name: "module/wide_resnet/res2/weights/IsInitialized/VarIsInitializedOp"
  op: "VarIsInitializedOp"
  input: "module/wide_resnet/res2/weights"
  attr {
    key: "_output_shapes"
    value {
      list {
        shape {
        }
      }
    }
  }
}
node {
  name: "module/wide_resnet/res2/weights/Assign"
  op: "AssignVariableOp"
  input: "module/wide_resnet/res2/weights"
  input: "module/wide_resnet/res2/weights/Initializer/truncated_normal"
  attr {
    key: "_class"
    value {
      list {
        s: "loc:@module/wide_resnet/res2/weights"
      }
    }
  }
  attr {
    key: "dtype"
    value {
      type: DT_FLOAT
    }
  }
}
node {
  name: "module/wide_resnet/res2/weights/Read/ReadVariableOp"
  op: "ReadVariableOp"
  input: "module/wide_resnet/res2/weights"
  attr {
    key: "_class"
    value {
      list {
        s: "loc:@module/wide_resnet/res2/weights"
      }
    }
  }
  attr {
    key: "_output_shapes"
    value {
      list {
        shape {
          dim {
            size: 3
          }
          dim {
            size: 3
          }
          dim {
            size: 3
          }
          dim {
            size: 64
          }
          dim {
            size: 32
          }
        }
      }
    }
  }
  attr {
    key: "dtype"
    value {
      type: DT_FLOAT
    }
  }
}
node {
  name: "module/wide_resnet/res2/biases/Initializer/zeros"
  op: "Const"
  attr {
    key: "_class"
    value {
      list {
        s: "loc:@module/wide_resnet/res2/biases"
      }
    }
  }
  attr {
    key: "_output_shapes"
    value {
      list {
        shape {
          dim {
            size: 32
          }
        }
      }
    }
  }
  attr {
    key: "dtype"
    value {
      type: DT_FLOAT
    }
  }
  attr {
    key: "value"
    value {
      tensor {
        dtype: DT_FLOAT
        tensor_shape {
          dim {
            size: 32
          }
        }
        float_val: 0.0
      }
    }
  }
}
node {
  name: "module/wide_resnet/res2/biases"
  op: "VarHandleOp"
  attr {
    key: "_class"
    value {
      list {
        s: "loc:@module/wide_resnet/res2/biases"
      }
    }
  }
  attr {
    key: "_output_shapes"
    value {
      list {
        shape {
        }
      }
    }
  }
  attr {
    key: "container"
    value {
      s: ""
    }
  }
  attr {
    key: "dtype"
    value {
      type: DT_FLOAT
    }
  }
  attr {
    key: "shape"
    value {
      shape {
        dim {
          size: 32
        }
      }
    }
  }
  attr {
    key: "shared_name"
    value {
      s: "module/wide_resnet/res2/biases"
    }
  }
}
node {
  name: "module/wide_resnet/res2/biases/IsInitialized/VarIsInitializedOp"
  op: "VarIsInitializedOp"
  input: "module/wide_resnet/res2/biases"
  attr {
    key: "_output_shapes"
    value {
      list {
        shape {
        }
      }
    }
  }
}
node {
  name: "module/wide_resnet/res2/biases/Assign"
  op: "AssignVariableOp"
  input: "module/wide_resnet/res2/biases"
  input: "module/wide_resnet/res2/biases/Initializer/zeros"
  attr {
    key: "_class"
    value {
      list {
        s: "loc:@module/wide_resnet/res2/biases"
      }
    }
  }
  attr {
    key: "dtype"
    value {
      type: DT_FLOAT
    }
  }
}
node {
  name: "module/wide_resnet/res2/biases/Read/ReadVariableOp"
  op: "ReadVariableOp"
  input: "module/wide_resnet/res2/biases"
  attr {
    key: "_class"
    value {
      list {
        s: "loc:@module/wide_resnet/res2/biases"
      }
    }
  }
  attr {
    key: "_output_shapes"
    value {
      list {
        shape {
          dim {
            size: 32
          }
        }
      }
    }
  }
  attr {
    key: "dtype"
    value {
      type: DT_FLOAT
    }
  }
}
node {
  name: "module/wide_resnet/res2/dilation_rate"
  op: "Const"
  attr {
    key: "_output_shapes"
    value {
      list {
        shape {
          dim {
            size: 3
          }
        }
      }
    }
  }
  attr {
    key: "dtype"
    value {
      type: DT_INT32
    }
  }
  attr {
    key: "value"
    value {
      tensor {
        dtype: DT_INT32
        tensor_shape {
          dim {
            size: 3
          }
        }
        tensor_content: "\001\000\000\000\001\000\000\000\001\000\000\000"
      }
    }
  }
}
node {
  name: "module/wide_resnet/res2/Conv3D/ReadVariableOp"
  op: "ReadVariableOp"
  input: "module/wide_resnet/res2/weights"
  attr {
    key: "_output_shapes"
    value {
      list {
        shape {
          dim {
            size: 3
          }
          dim {
            size: 3
          }
          dim {
            size: 3
          }
          dim {
            size: 64
          }
          dim {
            size: 32
          }
        }
      }
    }
  }
  attr {
    key: "dtype"
    value {
      type: DT_FLOAT
    }
  }
}
node {
  name: "module/wide_resnet/res2/Conv3D"
  op: "Conv3D"
  input: "module/wide_resnet/Dropout/dropout_1/mul"
  input: "module/wide_resnet/res2/Conv3D/ReadVariableOp"
  attr {
    key: "T"
    value {
      type: DT_FLOAT
    }
  }
  attr {
    key: "_output_shapes"
    value {
      list {
        shape {
          dim {
            size: -1
          }
          dim {
            size: -1
          }
          dim {
            size: -1
          }
          dim {
            size: -1
          }
          dim {
            size: 32
          }
        }
      }
    }
  }
  attr {
    key: "data_format"
    value {
      s: "NDHWC"
    }
  }
  attr {
    key: "dilations"
    value {
      list {
        i: 1
        i: 1
        i: 1
        i: 1
        i: 1
      }
    }
  }
  attr {
    key: "padding"
    value {
      s: "SAME"
    }
  }
  attr {
    key: "strides"
    value {
      list {
        i: 1
        i: 1
        i: 1
        i: 1
        i: 1
      }
    }
  }
}
node {
  name: "module/wide_resnet/res2/BiasAdd/ReadVariableOp"
  op: "ReadVariableOp"
  input: "module/wide_resnet/res2/biases"
  attr {
    key: "_output_shapes"
    value {
      list {
        shape {
          dim {
            size: 32
          }
        }
      }
    }
  }
  attr {
    key: "dtype"
    value {
      type: DT_FLOAT
    }
  }
}
node {
  name: "module/wide_resnet/res2/BiasAdd"
  op: "BiasAdd"
  input: "module/wide_resnet/res2/Conv3D"
  input: "module/wide_resnet/res2/BiasAdd/ReadVariableOp"
  attr {
    key: "T"
    value {
      type: DT_FLOAT
    }
  }
  attr {
    key: "_output_shapes"
    value {
      list {
        shape {
          dim {
            size: -1
          }
          dim {
            size: -1
          }
          dim {
            size: -1
          }
          dim {
            size: -1
          }
          dim {
            size: 32
          }
        }
      }
    }
  }
  attr {
    key: "data_format"
    value {
      s: "NHWC"
    }
  }
}
node {
  name: "module/wide_resnet/add"
  op: "Add"
  input: "module/wide_resnet/shortcut/BiasAdd"
  input: "module/wide_resnet/res2/BiasAdd"
  attr {
    key: "T"
    value {
      type: DT_FLOAT
    }
  }
  attr {
    key: "_output_shapes"
    value {
      list {
        shape {
          dim {
            size: -1
          }
          dim {
            size: -1
          }
          dim {
            size: -1
          }
          dim {
            size: -1
          }
          dim {
            size: 32
          }
        }
      }
    }
  }
}
node {
  name: "module/wide_resnet_1/LeakyRelu/alpha"
  op: "Const"
  attr {
    key: "_output_shapes"
    value {
      list {
        shape {
        }
      }
    }
  }
  attr {
    key: "dtype"
    value {
      type: DT_FLOAT
    }
  }
  attr {
    key: "value"
    value {
      tensor {
        dtype: DT_FLOAT
        tensor_shape {
        }
        float_val: 0.20000000298023224
      }
    }
  }
}
node {
  name: "module/wide_resnet_1/LeakyRelu/mul"
  op: "Mul"
  input: "module/wide_resnet_1/LeakyRelu/alpha"
  input: "module/wide_resnet/add"
  attr {
    key: "T"
    value {
      type: DT_FLOAT
    }
  }
  attr {
    key: "_output_shapes"
    value {
      list {
        shape {
          dim {
            size: -1
          }
          dim {
            size: -1
          }
          dim {
            size: -1
          }
          dim {
            size: -1
          }
          dim {
            size: 32
          }
        }
      }
    }
  }
}
node {
  name: "module/wide_resnet_1/LeakyRelu"
  op: "Maximum"
  input: "module/wide_resnet_1/LeakyRelu/mul"
  input: "module/wide_resnet/add"
  attr {
    key: "T"
    value {
      type: DT_FLOAT
    }
  }
  attr {
    key: "_output_shapes"
    value {
      list {
        shape {
          dim {
            size: -1
          }
          dim {
            size: -1
          }
          dim {
            size: -1
          }
          dim {
            size: -1
          }
          dim {
            size: 32
          }
        }
      }
    }
  }
}
node {
  name: "module/wide_resnet_1/res1/weights/Initializer/truncated_normal/shape"
  op: "Const"
  attr {
    key: "_class"
    value {
      list {
        s: "loc:@module/wide_resnet_1/res1/weights"
      }
    }
  }
  attr {
    key: "_output_shapes"
    value {
      list {
        shape {
          dim {
            size: 5
          }
        }
      }
    }
  }
  attr {
    key: "dtype"
    value {
      type: DT_INT32
    }
  }
  attr {
    key: "value"
    value {
      tensor {
        dtype: DT_INT32
        tensor_shape {
          dim {
            size: 5
          }
        }
        tensor_content: "\003\000\000\000\003\000\000\000\003\000\000\000 \000\000\000@\000\000\000"
      }
    }
  }
}
node {
  name: "module/wide_resnet_1/res1/weights/Initializer/truncated_normal/mean"
  op: "Const"
  attr {
    key: "_class"
    value {
      list {
        s: "loc:@module/wide_resnet_1/res1/weights"
      }
    }
  }
  attr {
    key: "_output_shapes"
    value {
      list {
        shape {
        }
      }
    }
  }
  attr {
    key: "dtype"
    value {
      type: DT_FLOAT
    }
  }
  attr {
    key: "value"
    value {
      tensor {
        dtype: DT_FLOAT
        tensor_shape {
        }
        float_val: 0.0
      }
    }
  }
}
node {
  name: "module/wide_resnet_1/res1/weights/Initializer/truncated_normal/stddev"
  op: "Const"
  attr {
    key: "_class"
    value {
      list {
        s: "loc:@module/wide_resnet_1/res1/weights"
      }
    }
  }
  attr {
    key: "_output_shapes"
    value {
      list {
        shape {
        }
      }
    }
  }
  attr {
    key: "dtype"
    value {
      type: DT_FLOAT
    }
  }
  attr {
    key: "value"
    value {
      tensor {
        dtype: DT_FLOAT
        tensor_shape {
        }
        float_val: 0.054856713861227036
      }
    }
  }
}
node {
  name: "module/wide_resnet_1/res1/weights/Initializer/truncated_normal/TruncatedNormal"
  op: "TruncatedNormal"
  input: "module/wide_resnet_1/res1/weights/Initializer/truncated_normal/shape"
  attr {
    key: "T"
    value {
      type: DT_INT32
    }
  }
  attr {
    key: "_class"
    value {
      list {
        s: "loc:@module/wide_resnet_1/res1/weights"
      }
    }
  }
  attr {
    key: "_output_shapes"
    value {
      list {
        shape {
          dim {
            size: 3
          }
          dim {
            size: 3
          }
          dim {
            size: 3
          }
          dim {
            size: 32
          }
          dim {
            size: 64
          }
        }
      }
    }
  }
  attr {
    key: "dtype"
    value {
      type: DT_FLOAT
    }
  }
  attr {
    key: "seed"
    value {
      i: 0
    }
  }
  attr {
    key: "seed2"
    value {
      i: 0
    }
  }
}
node {
  name: "module/wide_resnet_1/res1/weights/Initializer/truncated_normal/mul"
  op: "Mul"
  input: "module/wide_resnet_1/res1/weights/Initializer/truncated_normal/TruncatedNormal"
  input: "module/wide_resnet_1/res1/weights/Initializer/truncated_normal/stddev"
  attr {
    key: "T"
    value {
      type: DT_FLOAT
    }
  }
  attr {
    key: "_class"
    value {
      list {
        s: "loc:@module/wide_resnet_1/res1/weights"
      }
    }
  }
  attr {
    key: "_output_shapes"
    value {
      list {
        shape {
          dim {
            size: 3
          }
          dim {
            size: 3
          }
          dim {
            size: 3
          }
          dim {
            size: 32
          }
          dim {
            size: 64
          }
        }
      }
    }
  }
}
node {
  name: "module/wide_resnet_1/res1/weights/Initializer/truncated_normal"
  op: "Add"
  input: "module/wide_resnet_1/res1/weights/Initializer/truncated_normal/mul"
  input: "module/wide_resnet_1/res1/weights/Initializer/truncated_normal/mean"
  attr {
    key: "T"
    value {
      type: DT_FLOAT
    }
  }
  attr {
    key: "_class"
    value {
      list {
        s: "loc:@module/wide_resnet_1/res1/weights"
      }
    }
  }
  attr {
    key: "_output_shapes"
    value {
      list {
        shape {
          dim {
            size: 3
          }
          dim {
            size: 3
          }
          dim {
            size: 3
          }
          dim {
            size: 32
          }
          dim {
            size: 64
          }
        }
      }
    }
  }
}
node {
  name: "module/wide_resnet_1/res1/weights"
  op: "VarHandleOp"
  attr {
    key: "_class"
    value {
      list {
        s: "loc:@module/wide_resnet_1/res1/weights"
      }
    }
  }
  attr {
    key: "_output_shapes"
    value {
      list {
        shape {
        }
      }
    }
  }
  attr {
    key: "container"
    value {
      s: ""
    }
  }
  attr {
    key: "dtype"
    value {
      type: DT_FLOAT
    }
  }
  attr {
    key: "shape"
    value {
      shape {
        dim {
          size: 3
        }
        dim {
          size: 3
        }
        dim {
          size: 3
        }
        dim {
          size: 32
        }
        dim {
          size: 64
        }
      }
    }
  }
  attr {
    key: "shared_name"
    value {
      s: "module/wide_resnet_1/res1/weights"
    }
  }
}
node {
  name: "module/wide_resnet_1/res1/weights/IsInitialized/VarIsInitializedOp"
  op: "VarIsInitializedOp"
  input: "module/wide_resnet_1/res1/weights"
  attr {
    key: "_output_shapes"
    value {
      list {
        shape {
        }
      }
    }
  }
}
node {
  name: "module/wide_resnet_1/res1/weights/Assign"
  op: "AssignVariableOp"
  input: "module/wide_resnet_1/res1/weights"
  input: "module/wide_resnet_1/res1/weights/Initializer/truncated_normal"
  attr {
    key: "_class"
    value {
      list {
        s: "loc:@module/wide_resnet_1/res1/weights"
      }
    }
  }
  attr {
    key: "dtype"
    value {
      type: DT_FLOAT
    }
  }
}
node {
  name: "module/wide_resnet_1/res1/weights/Read/ReadVariableOp"
  op: "ReadVariableOp"
  input: "module/wide_resnet_1/res1/weights"
  attr {
    key: "_class"
    value {
      list {
        s: "loc:@module/wide_resnet_1/res1/weights"
      }
    }
  }
  attr {
    key: "_output_shapes"
    value {
      list {
        shape {
          dim {
            size: 3
          }
          dim {
            size: 3
          }
          dim {
            size: 3
          }
          dim {
            size: 32
          }
          dim {
            size: 64
          }
        }
      }
    }
  }
  attr {
    key: "dtype"
    value {
      type: DT_FLOAT
    }
  }
}
node {
  name: "module/wide_resnet_1/res1/dilation_rate"
  op: "Const"
  attr {
    key: "_output_shapes"
    value {
      list {
        shape {
          dim {
            size: 3
          }
        }
      }
    }
  }
  attr {
    key: "dtype"
    value {
      type: DT_INT32
    }
  }
  attr {
    key: "value"
    value {
      tensor {
        dtype: DT_INT32
        tensor_shape {
          dim {
            size: 3
          }
        }
        tensor_content: "\001\000\000\000\001\000\000\000\001\000\000\000"
      }
    }
  }
}
node {
  name: "module/wide_resnet_1/res1/Conv3D/ReadVariableOp"
  op: "ReadVariableOp"
  input: "module/wide_resnet_1/res1/weights"
  attr {
    key: "_output_shapes"
    value {
      list {
        shape {
          dim {
            size: 3
          }
          dim {
            size: 3
          }
          dim {
            size: 3
          }
          dim {
            size: 32
          }
          dim {
            size: 64
          }
        }
      }
    }
  }
  attr {
    key: "dtype"
    value {
      type: DT_FLOAT
    }
  }
}
node {
  name: "module/wide_resnet_1/res1/Conv3D"
  op: "Conv3D"
  input: "module/wide_resnet_1/LeakyRelu"
  input: "module/wide_resnet_1/res1/Conv3D/ReadVariableOp"
  attr {
    key: "T"
    value {
      type: DT_FLOAT
    }
  }
  attr {
    key: "_output_shapes"
    value {
      list {
        shape {
          dim {
            size: -1
          }
          dim {
            size: -1
          }
          dim {
            size: -1
          }
          dim {
            size: -1
          }
          dim {
            size: 64
          }
        }
      }
    }
  }
  attr {
    key: "data_format"
    value {
      s: "NDHWC"
    }
  }
  attr {
    key: "dilations"
    value {
      list {
        i: 1
        i: 1
        i: 1
        i: 1
        i: 1
      }
    }
  }
  attr {
    key: "padding"
    value {
      s: "SAME"
    }
  }
  attr {
    key: "strides"
    value {
      list {
        i: 1
        i: 1
        i: 1
        i: 1
        i: 1
      }
    }
  }
}
node {
  name: "module/wide_resnet_1/res1/BatchNorm/beta/Initializer/zeros"
  op: "Const"
  attr {
    key: "_class"
    value {
      list {
        s: "loc:@module/wide_resnet_1/res1/BatchNorm/beta"
      }
    }
  }
  attr {
    key: "_output_shapes"
    value {
      list {
        shape {
          dim {
            size: 64
          }
        }
      }
    }
  }
  attr {
    key: "dtype"
    value {
      type: DT_FLOAT
    }
  }
  attr {
    key: "value"
    value {
      tensor {
        dtype: DT_FLOAT
        tensor_shape {
          dim {
            size: 64
          }
        }
        float_val: 0.0
      }
    }
  }
}
node {
  name: "module/wide_resnet_1/res1/BatchNorm/beta"
  op: "VarHandleOp"
  attr {
    key: "_class"
    value {
      list {
        s: "loc:@module/wide_resnet_1/res1/BatchNorm/beta"
      }
    }
  }
  attr {
    key: "_output_shapes"
    value {
      list {
        shape {
        }
      }
    }
  }
  attr {
    key: "container"
    value {
      s: ""
    }
  }
  attr {
    key: "dtype"
    value {
      type: DT_FLOAT
    }
  }
  attr {
    key: "shape"
    value {
      shape {
        dim {
          size: 64
        }
      }
    }
  }
  attr {
    key: "shared_name"
    value {
      s: "module/wide_resnet_1/res1/BatchNorm/beta"
    }
  }
}
node {
  name: "module/wide_resnet_1/res1/BatchNorm/beta/IsInitialized/VarIsInitializedOp"
  op: "VarIsInitializedOp"
  input: "module/wide_resnet_1/res1/BatchNorm/beta"
  attr {
    key: "_output_shapes"
    value {
      list {
        shape {
        }
      }
    }
  }
}
node {
  name: "module/wide_resnet_1/res1/BatchNorm/beta/Assign"
  op: "AssignVariableOp"
  input: "module/wide_resnet_1/res1/BatchNorm/beta"
  input: "module/wide_resnet_1/res1/BatchNorm/beta/Initializer/zeros"
  attr {
    key: "_class"
    value {
      list {
        s: "loc:@module/wide_resnet_1/res1/BatchNorm/beta"
      }
    }
  }
  attr {
    key: "dtype"
    value {
      type: DT_FLOAT
    }
  }
}
node {
  name: "module/wide_resnet_1/res1/BatchNorm/beta/Read/ReadVariableOp"
  op: "ReadVariableOp"
  input: "module/wide_resnet_1/res1/BatchNorm/beta"
  attr {
    key: "_class"
    value {
      list {
        s: "loc:@module/wide_resnet_1/res1/BatchNorm/beta"
      }
    }
  }
  attr {
    key: "_output_shapes"
    value {
      list {
        shape {
          dim {
            size: 64
          }
        }
      }
    }
  }
  attr {
    key: "dtype"
    value {
      type: DT_FLOAT
    }
  }
}
node {
  name: "module/wide_resnet_1/res1/BatchNorm/moving_mean/Initializer/zeros"
  op: "Const"
  attr {
    key: "_class"
    value {
      list {
        s: "loc:@module/wide_resnet_1/res1/BatchNorm/moving_mean"
      }
    }
  }
  attr {
    key: "_output_shapes"
    value {
      list {
        shape {
          dim {
            size: 64
          }
        }
      }
    }
  }
  attr {
    key: "dtype"
    value {
      type: DT_FLOAT
    }
  }
  attr {
    key: "value"
    value {
      tensor {
        dtype: DT_FLOAT
        tensor_shape {
          dim {
            size: 64
          }
        }
        float_val: 0.0
      }
    }
  }
}
node {
  name: "module/wide_resnet_1/res1/BatchNorm/moving_mean"
  op: "VarHandleOp"
  attr {
    key: "_class"
    value {
      list {
        s: "loc:@module/wide_resnet_1/res1/BatchNorm/moving_mean"
      }
    }
  }
  attr {
    key: "_output_shapes"
    value {
      list {
        shape {
        }
      }
    }
  }
  attr {
    key: "container"
    value {
      s: ""
    }
  }
  attr {
    key: "dtype"
    value {
      type: DT_FLOAT
    }
  }
  attr {
    key: "shape"
    value {
      shape {
        dim {
          size: 64
        }
      }
    }
  }
  attr {
    key: "shared_name"
    value {
      s: "module/wide_resnet_1/res1/BatchNorm/moving_mean"
    }
  }
}
node {
  name: "module/wide_resnet_1/res1/BatchNorm/moving_mean/IsInitialized/VarIsInitializedOp"
  op: "VarIsInitializedOp"
  input: "module/wide_resnet_1/res1/BatchNorm/moving_mean"
  attr {
    key: "_output_shapes"
    value {
      list {
        shape {
        }
      }
    }
  }
}
node {
  name: "module/wide_resnet_1/res1/BatchNorm/moving_mean/Assign"
  op: "AssignVariableOp"
  input: "module/wide_resnet_1/res1/BatchNorm/moving_mean"
  input: "module/wide_resnet_1/res1/BatchNorm/moving_mean/Initializer/zeros"
  attr {
    key: "_class"
    value {
      list {
        s: "loc:@module/wide_resnet_1/res1/BatchNorm/moving_mean"
      }
    }
  }
  attr {
    key: "dtype"
    value {
      type: DT_FLOAT
    }
  }
}
node {
  name: "module/wide_resnet_1/res1/BatchNorm/moving_mean/Read/ReadVariableOp"
  op: "ReadVariableOp"
  input: "module/wide_resnet_1/res1/BatchNorm/moving_mean"
  attr {
    key: "_class"
    value {
      list {
        s: "loc:@module/wide_resnet_1/res1/BatchNorm/moving_mean"
      }
    }
  }
  attr {
    key: "_output_shapes"
    value {
      list {
        shape {
          dim {
            size: 64
          }
        }
      }
    }
  }
  attr {
    key: "dtype"
    value {
      type: DT_FLOAT
    }
  }
}
node {
  name: "module/wide_resnet_1/res1/BatchNorm/moving_variance/Initializer/ones"
  op: "Const"
  attr {
    key: "_class"
    value {
      list {
        s: "loc:@module/wide_resnet_1/res1/BatchNorm/moving_variance"
      }
    }
  }
  attr {
    key: "_output_shapes"
    value {
      list {
        shape {
          dim {
            size: 64
          }
        }
      }
    }
  }
  attr {
    key: "dtype"
    value {
      type: DT_FLOAT
    }
  }
  attr {
    key: "value"
    value {
      tensor {
        dtype: DT_FLOAT
        tensor_shape {
          dim {
            size: 64
          }
        }
        float_val: 1.0
      }
    }
  }
}
node {
  name: "module/wide_resnet_1/res1/BatchNorm/moving_variance"
  op: "VarHandleOp"
  attr {
    key: "_class"
    value {
      list {
        s: "loc:@module/wide_resnet_1/res1/BatchNorm/moving_variance"
      }
    }
  }
  attr {
    key: "_output_shapes"
    value {
      list {
        shape {
        }
      }
    }
  }
  attr {
    key: "container"
    value {
      s: ""
    }
  }
  attr {
    key: "dtype"
    value {
      type: DT_FLOAT
    }
  }
  attr {
    key: "shape"
    value {
      shape {
        dim {
          size: 64
        }
      }
    }
  }
  attr {
    key: "shared_name"
    value {
      s: "module/wide_resnet_1/res1/BatchNorm/moving_variance"
    }
  }
}
node {
  name: "module/wide_resnet_1/res1/BatchNorm/moving_variance/IsInitialized/VarIsInitializedOp"
  op: "VarIsInitializedOp"
  input: "module/wide_resnet_1/res1/BatchNorm/moving_variance"
  attr {
    key: "_output_shapes"
    value {
      list {
        shape {
        }
      }
    }
  }
}
node {
  name: "module/wide_resnet_1/res1/BatchNorm/moving_variance/Assign"
  op: "AssignVariableOp"
  input: "module/wide_resnet_1/res1/BatchNorm/moving_variance"
  input: "module/wide_resnet_1/res1/BatchNorm/moving_variance/Initializer/ones"
  attr {
    key: "_class"
    value {
      list {
        s: "loc:@module/wide_resnet_1/res1/BatchNorm/moving_variance"
      }
    }
  }
  attr {
    key: "dtype"
    value {
      type: DT_FLOAT
    }
  }
}
node {
  name: "module/wide_resnet_1/res1/BatchNorm/moving_variance/Read/ReadVariableOp"
  op: "ReadVariableOp"
  input: "module/wide_resnet_1/res1/BatchNorm/moving_variance"
  attr {
    key: "_class"
    value {
      list {
        s: "loc:@module/wide_resnet_1/res1/BatchNorm/moving_variance"
      }
    }
  }
  attr {
    key: "_output_shapes"
    value {
      list {
        shape {
          dim {
            size: 64
          }
        }
      }
    }
  }
  attr {
    key: "dtype"
    value {
      type: DT_FLOAT
    }
  }
}
node {
  name: "module/wide_resnet_1/res1/BatchNorm/moments/mean/reduction_indices"
  op: "Const"
  attr {
    key: "_output_shapes"
    value {
      list {
        shape {
          dim {
            size: 4
          }
        }
      }
    }
  }
  attr {
    key: "dtype"
    value {
      type: DT_INT32
    }
  }
  attr {
    key: "value"
    value {
      tensor {
        dtype: DT_INT32
        tensor_shape {
          dim {
            size: 4
          }
        }
        tensor_content: "\000\000\000\000\001\000\000\000\002\000\000\000\003\000\000\000"
      }
    }
  }
}
node {
  name: "module/wide_resnet_1/res1/BatchNorm/moments/mean"
  op: "Mean"
  input: "module/wide_resnet_1/res1/Conv3D"
  input: "module/wide_resnet_1/res1/BatchNorm/moments/mean/reduction_indices"
  attr {
    key: "T"
    value {
      type: DT_FLOAT
    }
  }
  attr {
    key: "Tidx"
    value {
      type: DT_INT32
    }
  }
  attr {
    key: "_output_shapes"
    value {
      list {
        shape {
          dim {
            size: 1
          }
          dim {
            size: 1
          }
          dim {
            size: 1
          }
          dim {
            size: 1
          }
          dim {
            size: 64
          }
        }
      }
    }
  }
  attr {
    key: "keep_dims"
    value {
      b: true
    }
  }
}
node {
  name: "module/wide_resnet_1/res1/BatchNorm/moments/StopGradient"
  op: "StopGradient"
  input: "module/wide_resnet_1/res1/BatchNorm/moments/mean"
  attr {
    key: "T"
    value {
      type: DT_FLOAT
    }
  }
  attr {
    key: "_output_shapes"
    value {
      list {
        shape {
          dim {
            size: 1
          }
          dim {
            size: 1
          }
          dim {
            size: 1
          }
          dim {
            size: 1
          }
          dim {
            size: 64
          }
        }
      }
    }
  }
}
node {
  name: "module/wide_resnet_1/res1/BatchNorm/moments/SquaredDifference"
  op: "SquaredDifference"
  input: "module/wide_resnet_1/res1/Conv3D"
  input: "module/wide_resnet_1/res1/BatchNorm/moments/StopGradient"
  attr {
    key: "T"
    value {
      type: DT_FLOAT
    }
  }
  attr {
    key: "_output_shapes"
    value {
      list {
        shape {
          dim {
            size: -1
          }
          dim {
            size: -1
          }
          dim {
            size: -1
          }
          dim {
            size: -1
          }
          dim {
            size: 64
          }
        }
      }
    }
  }
}
node {
  name: "module/wide_resnet_1/res1/BatchNorm/moments/variance/reduction_indices"
  op: "Const"
  attr {
    key: "_output_shapes"
    value {
      list {
        shape {
          dim {
            size: 4
          }
        }
      }
    }
  }
  attr {
    key: "dtype"
    value {
      type: DT_INT32
    }
  }
  attr {
    key: "value"
    value {
      tensor {
        dtype: DT_INT32
        tensor_shape {
          dim {
            size: 4
          }
        }
        tensor_content: "\000\000\000\000\001\000\000\000\002\000\000\000\003\000\000\000"
      }
    }
  }
}
node {
  name: "module/wide_resnet_1/res1/BatchNorm/moments/variance"
  op: "Mean"
  input: "module/wide_resnet_1/res1/BatchNorm/moments/SquaredDifference"
  input: "module/wide_resnet_1/res1/BatchNorm/moments/variance/reduction_indices"
  attr {
    key: "T"
    value {
      type: DT_FLOAT
    }
  }
  attr {
    key: "Tidx"
    value {
      type: DT_INT32
    }
  }
  attr {
    key: "_output_shapes"
    value {
      list {
        shape {
          dim {
            size: 1
          }
          dim {
            size: 1
          }
          dim {
            size: 1
          }
          dim {
            size: 1
          }
          dim {
            size: 64
          }
        }
      }
    }
  }
  attr {
    key: "keep_dims"
    value {
      b: true
    }
  }
}
node {
  name: "module/wide_resnet_1/res1/BatchNorm/moments/Squeeze"
  op: "Squeeze"
  input: "module/wide_resnet_1/res1/BatchNorm/moments/mean"
  attr {
    key: "T"
    value {
      type: DT_FLOAT
    }
  }
  attr {
    key: "_output_shapes"
    value {
      list {
        shape {
          dim {
            size: 64
          }
        }
      }
    }
  }
  attr {
    key: "squeeze_dims"
    value {
      list {
        i: 0
        i: 1
        i: 2
        i: 3
      }
    }
  }
}
node {
  name: "module/wide_resnet_1/res1/BatchNorm/moments/Squeeze_1"
  op: "Squeeze"
  input: "module/wide_resnet_1/res1/BatchNorm/moments/variance"
  attr {
    key: "T"
    value {
      type: DT_FLOAT
    }
  }
  attr {
    key: "_output_shapes"
    value {
      list {
        shape {
          dim {
            size: 64
          }
        }
      }
    }
  }
  attr {
    key: "squeeze_dims"
    value {
      list {
        i: 0
        i: 1
        i: 2
        i: 3
      }
    }
  }
}
node {
  name: "module/wide_resnet_1/res1/BatchNorm/AssignMovingAvg/Read/ReadVariableOp"
  op: "ReadVariableOp"
  input: "module/wide_resnet_1/res1/BatchNorm/moving_mean"
  attr {
    key: "_output_shapes"
    value {
      list {
        shape {
          dim {
            size: 64
          }
        }
      }
    }
  }
  attr {
    key: "dtype"
    value {
      type: DT_FLOAT
    }
  }
}
node {
  name: "module/wide_resnet_1/res1/BatchNorm/AssignMovingAvg/Identity"
  op: "Identity"
  input: "module/wide_resnet_1/res1/BatchNorm/AssignMovingAvg/Read/ReadVariableOp"
  attr {
    key: "T"
    value {
      type: DT_FLOAT
    }
  }
  attr {
    key: "_output_shapes"
    value {
      list {
        shape {
          dim {
            size: 64
          }
        }
      }
    }
  }
}
node {
  name: "module/wide_resnet_1/res1/BatchNorm/AssignMovingAvg/decay"
  op: "Const"
  attr {
    key: "_class"
    value {
      list {
        s: "loc:@module/wide_resnet_1/res1/BatchNorm/AssignMovingAvg/Read/ReadVariableOp"
      }
    }
  }
  attr {
    key: "_output_shapes"
    value {
      list {
        shape {
        }
      }
    }
  }
  attr {
    key: "dtype"
    value {
      type: DT_FLOAT
    }
  }
  attr {
    key: "value"
    value {
      tensor {
        dtype: DT_FLOAT
        tensor_shape {
        }
        float_val: 0.0010000000474974513
      }
    }
  }
}
node {
  name: "module/wide_resnet_1/res1/BatchNorm/AssignMovingAvg/ReadVariableOp"
  op: "ReadVariableOp"
  input: "module/wide_resnet_1/res1/BatchNorm/moving_mean"
  attr {
    key: "_output_shapes"
    value {
      list {
        shape {
          dim {
            size: 64
          }
        }
      }
    }
  }
  attr {
    key: "dtype"
    value {
      type: DT_FLOAT
    }
  }
}
node {
  name: "module/wide_resnet_1/res1/BatchNorm/AssignMovingAvg/sub"
  op: "Sub"
  input: "module/wide_resnet_1/res1/BatchNorm/AssignMovingAvg/ReadVariableOp"
  input: "module/wide_resnet_1/res1/BatchNorm/moments/Squeeze"
  attr {
    key: "T"
    value {
      type: DT_FLOAT
    }
  }
  attr {
    key: "_class"
    value {
      list {
        s: "loc:@module/wide_resnet_1/res1/BatchNorm/AssignMovingAvg/Read/ReadVariableOp"
      }
    }
  }
  attr {
    key: "_output_shapes"
    value {
      list {
        shape {
          dim {
            size: 64
          }
        }
      }
    }
  }
}
node {
  name: "module/wide_resnet_1/res1/BatchNorm/AssignMovingAvg/mul"
  op: "Mul"
  input: "module/wide_resnet_1/res1/BatchNorm/AssignMovingAvg/sub"
  input: "module/wide_resnet_1/res1/BatchNorm/AssignMovingAvg/decay"
  attr {
    key: "T"
    value {
      type: DT_FLOAT
    }
  }
  attr {
    key: "_class"
    value {
      list {
        s: "loc:@module/wide_resnet_1/res1/BatchNorm/AssignMovingAvg/Read/ReadVariableOp"
      }
    }
  }
  attr {
    key: "_output_shapes"
    value {
      list {
        shape {
          dim {
            size: 64
          }
        }
      }
    }
  }
}
node {
  name: "module/wide_resnet_1/res1/BatchNorm/AssignMovingAvg/AssignSubVariableOp"
  op: "AssignSubVariableOp"
  input: "module/wide_resnet_1/res1/BatchNorm/moving_mean"
  input: "module/wide_resnet_1/res1/BatchNorm/AssignMovingAvg/mul"
  attr {
    key: "_class"
    value {
      list {
        s: "loc:@module/wide_resnet_1/res1/BatchNorm/AssignMovingAvg/Read/ReadVariableOp"
      }
    }
  }
  attr {
    key: "dtype"
    value {
      type: DT_FLOAT
    }
  }
}
node {
  name: "module/wide_resnet_1/res1/BatchNorm/AssignMovingAvg/ReadVariableOp_1"
  op: "ReadVariableOp"
  input: "module/wide_resnet_1/res1/BatchNorm/moving_mean"
  input: "^module/wide_resnet_1/res1/BatchNorm/AssignMovingAvg/AssignSubVariableOp"
  attr {
    key: "_class"
    value {
      list {
        s: "loc:@module/wide_resnet_1/res1/BatchNorm/AssignMovingAvg/Read/ReadVariableOp"
      }
    }
  }
  attr {
    key: "_output_shapes"
    value {
      list {
        shape {
          dim {
            size: 64
          }
        }
      }
    }
  }
  attr {
    key: "dtype"
    value {
      type: DT_FLOAT
    }
  }
}
node {
  name: "module/wide_resnet_1/res1/BatchNorm/AssignMovingAvg_1/Read/ReadVariableOp"
  op: "ReadVariableOp"
  input: "module/wide_resnet_1/res1/BatchNorm/moving_variance"
  attr {
    key: "_output_shapes"
    value {
      list {
        shape {
          dim {
            size: 64
          }
        }
      }
    }
  }
  attr {
    key: "dtype"
    value {
      type: DT_FLOAT
    }
  }
}
node {
  name: "module/wide_resnet_1/res1/BatchNorm/AssignMovingAvg_1/Identity"
  op: "Identity"
  input: "module/wide_resnet_1/res1/BatchNorm/AssignMovingAvg_1/Read/ReadVariableOp"
  attr {
    key: "T"
    value {
      type: DT_FLOAT
    }
  }
  attr {
    key: "_output_shapes"
    value {
      list {
        shape {
          dim {
            size: 64
          }
        }
      }
    }
  }
}
node {
  name: "module/wide_resnet_1/res1/BatchNorm/AssignMovingAvg_1/decay"
  op: "Const"
  attr {
    key: "_class"
    value {
      list {
        s: "loc:@module/wide_resnet_1/res1/BatchNorm/AssignMovingAvg_1/Read/ReadVariableOp"
      }
    }
  }
  attr {
    key: "_output_shapes"
    value {
      list {
        shape {
        }
      }
    }
  }
  attr {
    key: "dtype"
    value {
      type: DT_FLOAT
    }
  }
  attr {
    key: "value"
    value {
      tensor {
        dtype: DT_FLOAT
        tensor_shape {
        }
        float_val: 0.0010000000474974513
      }
    }
  }
}
node {
  name: "module/wide_resnet_1/res1/BatchNorm/AssignMovingAvg_1/ReadVariableOp"
  op: "ReadVariableOp"
  input: "module/wide_resnet_1/res1/BatchNorm/moving_variance"
  attr {
    key: "_output_shapes"
    value {
      list {
        shape {
          dim {
            size: 64
          }
        }
      }
    }
  }
  attr {
    key: "dtype"
    value {
      type: DT_FLOAT
    }
  }
}
node {
  name: "module/wide_resnet_1/res1/BatchNorm/AssignMovingAvg_1/sub"
  op: "Sub"
  input: "module/wide_resnet_1/res1/BatchNorm/AssignMovingAvg_1/ReadVariableOp"
  input: "module/wide_resnet_1/res1/BatchNorm/moments/Squeeze_1"
  attr {
    key: "T"
    value {
      type: DT_FLOAT
    }
  }
  attr {
    key: "_class"
    value {
      list {
        s: "loc:@module/wide_resnet_1/res1/BatchNorm/AssignMovingAvg_1/Read/ReadVariableOp"
      }
    }
  }
  attr {
    key: "_output_shapes"
    value {
      list {
        shape {
          dim {
            size: 64
          }
        }
      }
    }
  }
}
node {
  name: "module/wide_resnet_1/res1/BatchNorm/AssignMovingAvg_1/mul"
  op: "Mul"
  input: "module/wide_resnet_1/res1/BatchNorm/AssignMovingAvg_1/sub"
  input: "module/wide_resnet_1/res1/BatchNorm/AssignMovingAvg_1/decay"
  attr {
    key: "T"
    value {
      type: DT_FLOAT
    }
  }
  attr {
    key: "_class"
    value {
      list {
        s: "loc:@module/wide_resnet_1/res1/BatchNorm/AssignMovingAvg_1/Read/ReadVariableOp"
      }
    }
  }
  attr {
    key: "_output_shapes"
    value {
      list {
        shape {
          dim {
            size: 64
          }
        }
      }
    }
  }
}
node {
  name: "module/wide_resnet_1/res1/BatchNorm/AssignMovingAvg_1/AssignSubVariableOp"
  op: "AssignSubVariableOp"
  input: "module/wide_resnet_1/res1/BatchNorm/moving_variance"
  input: "module/wide_resnet_1/res1/BatchNorm/AssignMovingAvg_1/mul"
  attr {
    key: "_class"
    value {
      list {
        s: "loc:@module/wide_resnet_1/res1/BatchNorm/AssignMovingAvg_1/Read/ReadVariableOp"
      }
    }
  }
  attr {
    key: "dtype"
    value {
      type: DT_FLOAT
    }
  }
}
node {
  name: "module/wide_resnet_1/res1/BatchNorm/AssignMovingAvg_1/ReadVariableOp_1"
  op: "ReadVariableOp"
  input: "module/wide_resnet_1/res1/BatchNorm/moving_variance"
  input: "^module/wide_resnet_1/res1/BatchNorm/AssignMovingAvg_1/AssignSubVariableOp"
  attr {
    key: "_class"
    value {
      list {
        s: "loc:@module/wide_resnet_1/res1/BatchNorm/AssignMovingAvg_1/Read/ReadVariableOp"
      }
    }
  }
  attr {
    key: "_output_shapes"
    value {
      list {
        shape {
          dim {
            size: 64
          }
        }
      }
    }
  }
  attr {
    key: "dtype"
    value {
      type: DT_FLOAT
    }
  }
}
node {
  name: "module/wide_resnet_1/res1/BatchNorm/batchnorm_1/add/y"
  op: "Const"
  attr {
    key: "_output_shapes"
    value {
      list {
        shape {
        }
      }
    }
  }
  attr {
    key: "dtype"
    value {
      type: DT_FLOAT
    }
  }
  attr {
    key: "value"
    value {
      tensor {
        dtype: DT_FLOAT
        tensor_shape {
        }
        float_val: 0.0010000000474974513
      }
    }
  }
}
node {
  name: "module/wide_resnet_1/res1/BatchNorm/batchnorm_1/add"
  op: "Add"
  input: "module/wide_resnet_1/res1/BatchNorm/moments/Squeeze_1"
  input: "module/wide_resnet_1/res1/BatchNorm/batchnorm_1/add/y"
  attr {
    key: "T"
    value {
      type: DT_FLOAT
    }
  }
  attr {
    key: "_output_shapes"
    value {
      list {
        shape {
          dim {
            size: 64
          }
        }
      }
    }
  }
}
node {
  name: "module/wide_resnet_1/res1/BatchNorm/batchnorm_1/Rsqrt"
  op: "Rsqrt"
  input: "module/wide_resnet_1/res1/BatchNorm/batchnorm_1/add"
  attr {
    key: "T"
    value {
      type: DT_FLOAT
    }
  }
  attr {
    key: "_output_shapes"
    value {
      list {
        shape {
          dim {
            size: 64
          }
        }
      }
    }
  }
}
node {
  name: "module/wide_resnet_1/res1/BatchNorm/batchnorm_1/mul"
  op: "Mul"
  input: "module/wide_resnet_1/res1/Conv3D"
  input: "module/wide_resnet_1/res1/BatchNorm/batchnorm_1/Rsqrt"
  attr {
    key: "T"
    value {
      type: DT_FLOAT
    }
  }
  attr {
    key: "_output_shapes"
    value {
      list {
        shape {
          dim {
            size: -1
          }
          dim {
            size: -1
          }
          dim {
            size: -1
          }
          dim {
            size: -1
          }
          dim {
            size: 64
          }
        }
      }
    }
  }
}
node {
  name: "module/wide_resnet_1/res1/BatchNorm/batchnorm_1/mul_1"
  op: "Mul"
  input: "module/wide_resnet_1/res1/BatchNorm/moments/Squeeze"
  input: "module/wide_resnet_1/res1/BatchNorm/batchnorm_1/Rsqrt"
  attr {
    key: "T"
    value {
      type: DT_FLOAT
    }
  }
  attr {
    key: "_output_shapes"
    value {
      list {
        shape {
          dim {
            size: 64
          }
        }
      }
    }
  }
}
node {
  name: "module/wide_resnet_1/res1/BatchNorm/batchnorm_1/ReadVariableOp"
  op: "ReadVariableOp"
  input: "module/wide_resnet_1/res1/BatchNorm/beta"
  attr {
    key: "_output_shapes"
    value {
      list {
        shape {
          dim {
            size: 64
          }
        }
      }
    }
  }
  attr {
    key: "dtype"
    value {
      type: DT_FLOAT
    }
  }
}
node {
  name: "module/wide_resnet_1/res1/BatchNorm/batchnorm_1/sub"
  op: "Sub"
  input: "module/wide_resnet_1/res1/BatchNorm/batchnorm_1/ReadVariableOp"
  input: "module/wide_resnet_1/res1/BatchNorm/batchnorm_1/mul_1"
  attr {
    key: "T"
    value {
      type: DT_FLOAT
    }
  }
  attr {
    key: "_output_shapes"
    value {
      list {
        shape {
          dim {
            size: 64
          }
        }
      }
    }
  }
}
node {
  name: "module/wide_resnet_1/res1/BatchNorm/batchnorm_1/add_1"
  op: "Add"
  input: "module/wide_resnet_1/res1/BatchNorm/batchnorm_1/mul"
  input: "module/wide_resnet_1/res1/BatchNorm/batchnorm_1/sub"
  attr {
    key: "T"
    value {
      type: DT_FLOAT
    }
  }
  attr {
    key: "_output_shapes"
    value {
      list {
        shape {
          dim {
            size: -1
          }
          dim {
            size: -1
          }
          dim {
            size: -1
          }
          dim {
            size: -1
          }
          dim {
            size: 64
          }
        }
      }
    }
  }
}
node {
  name: "module/wide_resnet_1/res1/LeakyRelu/alpha"
  op: "Const"
  attr {
    key: "_output_shapes"
    value {
      list {
        shape {
        }
      }
    }
  }
  attr {
    key: "dtype"
    value {
      type: DT_FLOAT
    }
  }
  attr {
    key: "value"
    value {
      tensor {
        dtype: DT_FLOAT
        tensor_shape {
        }
        float_val: 0.20000000298023224
      }
    }
  }
}
node {
  name: "module/wide_resnet_1/res1/LeakyRelu/mul"
  op: "Mul"
  input: "module/wide_resnet_1/res1/LeakyRelu/alpha"
  input: "module/wide_resnet_1/res1/BatchNorm/batchnorm_1/add_1"
  attr {
    key: "T"
    value {
      type: DT_FLOAT
    }
  }
  attr {
    key: "_output_shapes"
    value {
      list {
        shape {
          dim {
            size: -1
          }
          dim {
            size: -1
          }
          dim {
            size: -1
          }
          dim {
            size: -1
          }
          dim {
            size: 64
          }
        }
      }
    }
  }
}
node {
  name: "module/wide_resnet_1/res1/LeakyRelu"
  op: "Maximum"
  input: "module/wide_resnet_1/res1/LeakyRelu/mul"
  input: "module/wide_resnet_1/res1/BatchNorm/batchnorm_1/add_1"
  attr {
    key: "T"
    value {
      type: DT_FLOAT
    }
  }
  attr {
    key: "_output_shapes"
    value {
      list {
        shape {
          dim {
            size: -1
          }
          dim {
            size: -1
          }
          dim {
            size: -1
          }
          dim {
            size: -1
          }
          dim {
            size: 64
          }
        }
      }
    }
  }
}
node {
  name: "module/wide_resnet_1/Dropout/dropout_1/keep_prob"
  op: "Const"
  attr {
    key: "_output_shapes"
    value {
      list {
        shape {
        }
      }
    }
  }
  attr {
    key: "dtype"
    value {
      type: DT_FLOAT
    }
  }
  attr {
    key: "value"
    value {
      tensor {
        dtype: DT_FLOAT
        tensor_shape {
        }
        float_val: 0.949999988079071
      }
    }
  }
}
node {
  name: "module/wide_resnet_1/Dropout/dropout_1/Shape"
  op: "Shape"
  input: "module/wide_resnet_1/res1/LeakyRelu"
  attr {
    key: "T"
    value {
      type: DT_FLOAT
    }
  }
  attr {
    key: "_output_shapes"
    value {
      list {
        shape {
          dim {
            size: 5
          }
        }
      }
    }
  }
  attr {
    key: "out_type"
    value {
      type: DT_INT32
    }
  }
}
node {
  name: "module/wide_resnet_1/Dropout/dropout_1/random_uniform/min"
  op: "Const"
  attr {
    key: "_output_shapes"
    value {
      list {
        shape {
        }
      }
    }
  }
  attr {
    key: "dtype"
    value {
      type: DT_FLOAT
    }
  }
  attr {
    key: "value"
    value {
      tensor {
        dtype: DT_FLOAT
        tensor_shape {
        }
        float_val: 0.0
      }
    }
  }
}
node {
  name: "module/wide_resnet_1/Dropout/dropout_1/random_uniform/max"
  op: "Const"
  attr {
    key: "_output_shapes"
    value {
      list {
        shape {
        }
      }
    }
  }
  attr {
    key: "dtype"
    value {
      type: DT_FLOAT
    }
  }
  attr {
    key: "value"
    value {
      tensor {
        dtype: DT_FLOAT
        tensor_shape {
        }
        float_val: 1.0
      }
    }
  }
}
node {
  name: "module/wide_resnet_1/Dropout/dropout_1/random_uniform/RandomUniform"
  op: "RandomUniform"
  input: "module/wide_resnet_1/Dropout/dropout_1/Shape"
  attr {
    key: "T"
    value {
      type: DT_INT32
    }
  }
  attr {
    key: "_output_shapes"
    value {
      list {
        shape {
          dim {
            size: -1
          }
          dim {
            size: -1
          }
          dim {
            size: -1
          }
          dim {
            size: -1
          }
          dim {
            size: 64
          }
        }
      }
    }
  }
  attr {
    key: "dtype"
    value {
      type: DT_FLOAT
    }
  }
  attr {
    key: "seed"
    value {
      i: 0
    }
  }
  attr {
    key: "seed2"
    value {
      i: 0
    }
  }
}
node {
  name: "module/wide_resnet_1/Dropout/dropout_1/random_uniform/sub"
  op: "Sub"
  input: "module/wide_resnet_1/Dropout/dropout_1/random_uniform/max"
  input: "module/wide_resnet_1/Dropout/dropout_1/random_uniform/min"
  attr {
    key: "T"
    value {
      type: DT_FLOAT
    }
  }
  attr {
    key: "_output_shapes"
    value {
      list {
        shape {
        }
      }
    }
  }
}
node {
  name: "module/wide_resnet_1/Dropout/dropout_1/random_uniform/mul"
  op: "Mul"
  input: "module/wide_resnet_1/Dropout/dropout_1/random_uniform/RandomUniform"
  input: "module/wide_resnet_1/Dropout/dropout_1/random_uniform/sub"
  attr {
    key: "T"
    value {
      type: DT_FLOAT
    }
  }
  attr {
    key: "_output_shapes"
    value {
      list {
        shape {
          dim {
            size: -1
          }
          dim {
            size: -1
          }
          dim {
            size: -1
          }
          dim {
            size: -1
          }
          dim {
            size: 64
          }
        }
      }
    }
  }
}
node {
  name: "module/wide_resnet_1/Dropout/dropout_1/random_uniform"
  op: "Add"
  input: "module/wide_resnet_1/Dropout/dropout_1/random_uniform/mul"
  input: "module/wide_resnet_1/Dropout/dropout_1/random_uniform/min"
  attr {
    key: "T"
    value {
      type: DT_FLOAT
    }
  }
  attr {
    key: "_output_shapes"
    value {
      list {
        shape {
          dim {
            size: -1
          }
          dim {
            size: -1
          }
          dim {
            size: -1
          }
          dim {
            size: -1
          }
          dim {
            size: 64
          }
        }
      }
    }
  }
}
node {
  name: "module/wide_resnet_1/Dropout/dropout_1/add"
  op: "Add"
  input: "module/wide_resnet_1/Dropout/dropout_1/keep_prob"
  input: "module/wide_resnet_1/Dropout/dropout_1/random_uniform"
  attr {
    key: "T"
    value {
      type: DT_FLOAT
    }
  }
  attr {
    key: "_output_shapes"
    value {
      list {
        shape {
          dim {
            size: -1
          }
          dim {
            size: -1
          }
          dim {
            size: -1
          }
          dim {
            size: -1
          }
          dim {
            size: 64
          }
        }
      }
    }
  }
}
node {
  name: "module/wide_resnet_1/Dropout/dropout_1/Floor"
  op: "Floor"
  input: "module/wide_resnet_1/Dropout/dropout_1/add"
  attr {
    key: "T"
    value {
      type: DT_FLOAT
    }
  }
  attr {
    key: "_output_shapes"
    value {
      list {
        shape {
          dim {
            size: -1
          }
          dim {
            size: -1
          }
          dim {
            size: -1
          }
          dim {
            size: -1
          }
          dim {
            size: 64
          }
        }
      }
    }
  }
}
node {
  name: "module/wide_resnet_1/Dropout/dropout_1/div"
  op: "RealDiv"
  input: "module/wide_resnet_1/res1/LeakyRelu"
  input: "module/wide_resnet_1/Dropout/dropout_1/keep_prob"
  attr {
    key: "T"
    value {
      type: DT_FLOAT
    }
  }
  attr {
    key: "_output_shapes"
    value {
      list {
        shape {
          dim {
            size: -1
          }
          dim {
            size: -1
          }
          dim {
            size: -1
          }
          dim {
            size: -1
          }
          dim {
            size: 64
          }
        }
      }
    }
  }
}
node {
  name: "module/wide_resnet_1/Dropout/dropout_1/mul"
  op: "Mul"
  input: "module/wide_resnet_1/Dropout/dropout_1/div"
  input: "module/wide_resnet_1/Dropout/dropout_1/Floor"
  attr {
    key: "T"
    value {
      type: DT_FLOAT
    }
  }
  attr {
    key: "_output_shapes"
    value {
      list {
        shape {
          dim {
            size: -1
          }
          dim {
            size: -1
          }
          dim {
            size: -1
          }
          dim {
            size: -1
          }
          dim {
            size: 64
          }
        }
      }
    }
  }
}
node {
  name: "module/wide_resnet_1/res2/weights/Initializer/truncated_normal/shape"
  op: "Const"
  attr {
    key: "_class"
    value {
      list {
        s: "loc:@module/wide_resnet_1/res2/weights"
      }
    }
  }
  attr {
    key: "_output_shapes"
    value {
      list {
        shape {
          dim {
            size: 5
          }
        }
      }
    }
  }
  attr {
    key: "dtype"
    value {
      type: DT_INT32
    }
  }
  attr {
    key: "value"
    value {
      tensor {
        dtype: DT_INT32
        tensor_shape {
          dim {
            size: 5
          }
        }
        tensor_content: "\003\000\000\000\003\000\000\000\003\000\000\000@\000\000\000 \000\000\000"
      }
    }
  }
}
node {
  name: "module/wide_resnet_1/res2/weights/Initializer/truncated_normal/mean"
  op: "Const"
  attr {
    key: "_class"
    value {
      list {
        s: "loc:@module/wide_resnet_1/res2/weights"
      }
    }
  }
  attr {
    key: "_output_shapes"
    value {
      list {
        shape {
        }
      }
    }
  }
  attr {
    key: "dtype"
    value {
      type: DT_FLOAT
    }
  }
  attr {
    key: "value"
    value {
      tensor {
        dtype: DT_FLOAT
        tensor_shape {
        }
        float_val: 0.0
      }
    }
  }
}
node {
  name: "module/wide_resnet_1/res2/weights/Initializer/truncated_normal/stddev"
  op: "Const"
  attr {
    key: "_class"
    value {
      list {
        s: "loc:@module/wide_resnet_1/res2/weights"
      }
    }
  }
  attr {
    key: "_output_shapes"
    value {
      list {
        shape {
        }
      }
    }
  }
  attr {
    key: "dtype"
    value {
      type: DT_FLOAT
    }
  }
  attr {
    key: "value"
    value {
      tensor {
        dtype: DT_FLOAT
        tensor_shape {
        }
        float_val: 0.03878955543041229
      }
    }
  }
}
node {
  name: "module/wide_resnet_1/res2/weights/Initializer/truncated_normal/TruncatedNormal"
  op: "TruncatedNormal"
  input: "module/wide_resnet_1/res2/weights/Initializer/truncated_normal/shape"
  attr {
    key: "T"
    value {
      type: DT_INT32
    }
  }
  attr {
    key: "_class"
    value {
      list {
        s: "loc:@module/wide_resnet_1/res2/weights"
      }
    }
  }
  attr {
    key: "_output_shapes"
    value {
      list {
        shape {
          dim {
            size: 3
          }
          dim {
            size: 3
          }
          dim {
            size: 3
          }
          dim {
            size: 64
          }
          dim {
            size: 32
          }
        }
      }
    }
  }
  attr {
    key: "dtype"
    value {
      type: DT_FLOAT
    }
  }
  attr {
    key: "seed"
    value {
      i: 0
    }
  }
  attr {
    key: "seed2"
    value {
      i: 0
    }
  }
}
node {
  name: "module/wide_resnet_1/res2/weights/Initializer/truncated_normal/mul"
  op: "Mul"
  input: "module/wide_resnet_1/res2/weights/Initializer/truncated_normal/TruncatedNormal"
  input: "module/wide_resnet_1/res2/weights/Initializer/truncated_normal/stddev"
  attr {
    key: "T"
    value {
      type: DT_FLOAT
    }
  }
  attr {
    key: "_class"
    value {
      list {
        s: "loc:@module/wide_resnet_1/res2/weights"
      }
    }
  }
  attr {
    key: "_output_shapes"
    value {
      list {
        shape {
          dim {
            size: 3
          }
          dim {
            size: 3
          }
          dim {
            size: 3
          }
          dim {
            size: 64
          }
          dim {
            size: 32
          }
        }
      }
    }
  }
}
node {
  name: "module/wide_resnet_1/res2/weights/Initializer/truncated_normal"
  op: "Add"
  input: "module/wide_resnet_1/res2/weights/Initializer/truncated_normal/mul"
  input: "module/wide_resnet_1/res2/weights/Initializer/truncated_normal/mean"
  attr {
    key: "T"
    value {
      type: DT_FLOAT
    }
  }
  attr {
    key: "_class"
    value {
      list {
        s: "loc:@module/wide_resnet_1/res2/weights"
      }
    }
  }
  attr {
    key: "_output_shapes"
    value {
      list {
        shape {
          dim {
            size: 3
          }
          dim {
            size: 3
          }
          dim {
            size: 3
          }
          dim {
            size: 64
          }
          dim {
            size: 32
          }
        }
      }
    }
  }
}
node {
  name: "module/wide_resnet_1/res2/weights"
  op: "VarHandleOp"
  attr {
    key: "_class"
    value {
      list {
        s: "loc:@module/wide_resnet_1/res2/weights"
      }
    }
  }
  attr {
    key: "_output_shapes"
    value {
      list {
        shape {
        }
      }
    }
  }
  attr {
    key: "container"
    value {
      s: ""
    }
  }
  attr {
    key: "dtype"
    value {
      type: DT_FLOAT
    }
  }
  attr {
    key: "shape"
    value {
      shape {
        dim {
          size: 3
        }
        dim {
          size: 3
        }
        dim {
          size: 3
        }
        dim {
          size: 64
        }
        dim {
          size: 32
        }
      }
    }
  }
  attr {
    key: "shared_name"
    value {
      s: "module/wide_resnet_1/res2/weights"
    }
  }
}
node {
  name: "module/wide_resnet_1/res2/weights/IsInitialized/VarIsInitializedOp"
  op: "VarIsInitializedOp"
  input: "module/wide_resnet_1/res2/weights"
  attr {
    key: "_output_shapes"
    value {
      list {
        shape {
        }
      }
    }
  }
}
node {
  name: "module/wide_resnet_1/res2/weights/Assign"
  op: "AssignVariableOp"
  input: "module/wide_resnet_1/res2/weights"
  input: "module/wide_resnet_1/res2/weights/Initializer/truncated_normal"
  attr {
    key: "_class"
    value {
      list {
        s: "loc:@module/wide_resnet_1/res2/weights"
      }
    }
  }
  attr {
    key: "dtype"
    value {
      type: DT_FLOAT
    }
  }
}
node {
  name: "module/wide_resnet_1/res2/weights/Read/ReadVariableOp"
  op: "ReadVariableOp"
  input: "module/wide_resnet_1/res2/weights"
  attr {
    key: "_class"
    value {
      list {
        s: "loc:@module/wide_resnet_1/res2/weights"
      }
    }
  }
  attr {
    key: "_output_shapes"
    value {
      list {
        shape {
          dim {
            size: 3
          }
          dim {
            size: 3
          }
          dim {
            size: 3
          }
          dim {
            size: 64
          }
          dim {
            size: 32
          }
        }
      }
    }
  }
  attr {
    key: "dtype"
    value {
      type: DT_FLOAT
    }
  }
}
…
    }
  }
  attr {
    key: "_output_shapes"
    value {
      list {
        shape {
          unknown_rank: true
        }
      }
    }
  }
}
node {
  name: "save_2/AssignVariableOp_46"
  op: "AssignVariableOp"
  input: "module/wide_resnet/shortcut/biases/Adam_1"
  input: "save_2/Identity_47"
  attr {
    key: "dtype"
    value {
      type: DT_FLOAT
    }
  }
}
node {
  name: "save_2/Identity_48"
  op: "Identity"
  input: "save_2/RestoreV2:50"
  attr {
    key: "T"
    value {
      type: DT_FLOAT
    }
  }
  attr {
    key: "_output_shapes"
    value {
      list {
        shape {
          unknown_rank: true
        }
      }
    }
  }
}
node {
  name: "save_2/AssignVariableOp_47"
  op: "AssignVariableOp"
  input: "module/wide_resnet/shortcut/weights"
  input: "save_2/Identity_48"
  attr {
    key: "dtype"
    value {
      type: DT_FLOAT
    }
  }
}
node {
  name: "save_2/Identity_49"
  op: "Identity"
  input: "save_2/RestoreV2:51"
  attr {
    key: "T"
    value {
      type: DT_FLOAT
    }
  }
  attr {
    key: "_output_shapes"
    value {
      list {
        shape {
          unknown_rank: true
        }
      }
    }
  }
}
node {
  name: "save_2/AssignVariableOp_48"
  op: "AssignVariableOp"
  input: "module/wide_resnet/shortcut/weights/Adam"
  input: "save_2/Identity_49"
  attr {
    key: "dtype"
    value {
      type: DT_FLOAT
    }
  }
}
node {
  name: "save_2/Identity_50"
  op: "Identity"
  input: "save_2/RestoreV2:52"
  attr {
    key: "T"
    value {
      type: DT_FLOAT
    }
  }
  attr {
    key: "_output_shapes"
    value {
      list {
        shape {
          unknown_rank: true
        }
      }
    }
  }
}
node {
  name: "save_2/AssignVariableOp_49"
  op: "AssignVariableOp"
  input: "module/wide_resnet/shortcut/weights/Adam_1"
  input: "save_2/Identity_50"
  attr {
    key: "dtype"
    value {
      type: DT_FLOAT
    }
  }
}
node {
  name: "save_2/Identity_51"
  op: "Identity"
  input: "save_2/RestoreV2:53"
  attr {
    key: "T"
    value {
      type: DT_FLOAT
    }
  }
  attr {
    key: "_output_shapes"
    value {
      list {
        shape {
          unknown_rank: true
        }
      }
    }
  }
}
node {
  name: "save_2/AssignVariableOp_50"
  op: "AssignVariableOp"
  input: "module/wide_resnet_1/res1/BatchNorm/beta"
  input: "save_2/Identity_51"
  attr {
    key: "dtype"
    value {
      type: DT_FLOAT
    }
  }
}
node {
  name: "save_2/Identity_52"
  op: "Identity"
  input: "save_2/RestoreV2:54"
  attr {
    key: "T"
    value {
      type: DT_FLOAT
    }
  }
  attr {
    key: "_output_shapes"
    value {
      list {
        shape {
          unknown_rank: true
        }
      }
    }
  }
}
node {
  name: "save_2/AssignVariableOp_51"
  op: "AssignVariableOp"
  input: "module/wide_resnet_1/res1/BatchNorm/beta/Adam"
  input: "save_2/Identity_52"
  attr {
    key: "dtype"
    value {
      type: DT_FLOAT
    }
  }
}
node {
  name: "save_2/Identity_53"
  op: "Identity"
  input: "save_2/RestoreV2:55"
  attr {
    key: "T"
    value {
      type: DT_FLOAT
    }
  }
  attr {
    key: "_output_shapes"
    value {
      list {
        shape {
          unknown_rank: true
        }
      }
    }
  }
}
node {
  name: "save_2/AssignVariableOp_52"
  op: "AssignVariableOp"
  input: "module/wide_resnet_1/res1/BatchNorm/beta/Adam_1"
  input: "save_2/Identity_53"
  attr {
    key: "dtype"
    value {
      type: DT_FLOAT
    }
  }
}
node {
  name: "save_2/Identity_54"
  op: "Identity"
  input: "save_2/RestoreV2:56"
  attr {
    key: "T"
    value {
      type: DT_FLOAT
    }
  }
  attr {
    key: "_output_shapes"
    value {
      list {
        shape {
          unknown_rank: true
        }
      }
    }
  }
}
node {
  name: "save_2/AssignVariableOp_53"
  op: "AssignVariableOp"
  input: "module/wide_resnet_1/res1/BatchNorm/moving_mean"
  input: "save_2/Identity_54"
  attr {
    key: "dtype"
    value {
      type: DT_FLOAT
    }
  }
}
node {
  name: "save_2/Identity_55"
  op: "Identity"
  input: "save_2/RestoreV2:57"
  attr {
    key: "T"
    value {
      type: DT_FLOAT
    }
  }
  attr {
    key: "_output_shapes"
    value {
      list {
        shape {
          unknown_rank: true
        }
      }
    }
  }
}
node {
  name: "save_2/AssignVariableOp_54"
  op: "AssignVariableOp"
  input: "module/wide_resnet_1/res1/BatchNorm/moving_variance"
  input: "save_2/Identity_55"
  attr {
    key: "dtype"
    value {
      type: DT_FLOAT
    }
  }
}
node {
  name: "save_2/Identity_56"
  op: "Identity"
  input: "save_2/RestoreV2:58"
  attr {
    key: "T"
    value {
      type: DT_FLOAT
    }
  }
  attr {
    key: "_output_shapes"
    value {
      list {
        shape {
          unknown_rank: true
        }
      }
    }
  }
}
node {
  name: "save_2/AssignVariableOp_55"
  op: "AssignVariableOp"
  input: "module/wide_resnet_1/res1/weights"
  input: "save_2/Identity_56"
  attr {
    key: "dtype"
    value {
      type: DT_FLOAT
    }
  }
}
node {
  name: "save_2/Identity_57"
  op: "Identity"
  input: "save_2/RestoreV2:59"
  attr {
    key: "T"
    value {
      type: DT_FLOAT
    }
  }
  attr {
    key: "_output_shapes"
    value {
      list {
        shape {
          unknown_rank: true
        }
      }
    }
  }
}
node {
  name: "save_2/AssignVariableOp_56"
  op: "AssignVariableOp"
  input: "module/wide_resnet_1/res1/weights/Adam"
  input: "save_2/Identity_57"
  attr {
    key: "dtype"
    value {
      type: DT_FLOAT
    }
  }
}
node {
  name: "save_2/Identity_58"
  op: "Identity"
  input: "save_2/RestoreV2:60"
  attr {
    key: "T"
    value {
      type: DT_FLOAT
    }
  }
  attr {
    key: "_output_shapes"
    value {
      list {
        shape {
          unknown_rank: true
        }
      }
    }
  }
}
node {
  name: "save_2/AssignVariableOp_57"
  op: "AssignVariableOp"
  input: "module/wide_resnet_1/res1/weights/Adam_1"
  input: "save_2/Identity_58"
  attr {
    key: "dtype"
    value {
      type: DT_FLOAT
    }
  }
}
node {
  name: "save_2/Identity_59"
  op: "Identity"
  input: "save_2/RestoreV2:61"
  attr {
    key: "T"
    value {
      type: DT_FLOAT
    }
  }
  attr {
    key: "_output_shapes"
    value {
      list {
        shape {
          unknown_rank: true
        }
      }
    }
  }
}
node {
  name: "save_2/AssignVariableOp_58"
  op: "AssignVariableOp"
  input: "module/wide_resnet_1/res2/biases"
  input: "save_2/Identity_59"
  attr {
    key: "dtype"
    value {
      type: DT_FLOAT
    }
  }
}
node {
  name: "save_2/Identity_60"
  op: "Identity"
  input: "save_2/RestoreV2:62"
  attr {
    key: "T"
    value {
      type: DT_FLOAT
    }
  }
  attr {
    key: "_output_shapes"
    value {
      list {
        shape {
          unknown_rank: true
        }
      }
    }
  }
}
node {
  name: "save_2/AssignVariableOp_59"
  op: "AssignVariableOp"
  input: "module/wide_resnet_1/res2/biases/Adam"
  input: "save_2/Identity_60"
  attr {
    key: "dtype"
    value {
      type: DT_FLOAT
    }
  }
}
node {
  name: "save_2/Identity_61"
  op: "Identity"
  input: "save_2/RestoreV2:63"
  attr {
    key: "T"
    value {
      type: DT_FLOAT
    }
  }
  attr {
    key: "_output_shapes"
    value {
      list {
        shape {
          unknown_rank: true
        }
      }
    }
  }
}
node {
  name: "save_2/AssignVariableOp_60"
  op: "AssignVariableOp"
  input: "module/wide_resnet_1/res2/biases/Adam_1"
  input: "save_2/Identity_61"
  attr {
    key: "dtype"
    value {
      type: DT_FLOAT
    }
  }
}
node {
  name: "save_2/Identity_62"
  op: "Identity"
  input: "save_2/RestoreV2:64"
  attr {
    key: "T"
    value {
      type: DT_FLOAT
    }
  }
  attr {
    key: "_output_shapes"
    value {
      list {
        shape {
          unknown_rank: true
        }
      }
    }
  }
}
node {
  name: "save_2/AssignVariableOp_61"
  op: "AssignVariableOp"
  input: "module/wide_resnet_1/res2/weights"
  input: "save_2/Identity_62"
  attr {
    key: "dtype"
    value {
      type: DT_FLOAT
    }
  }
}
node {
  name: "save_2/Identity_63"
  op: "Identity"
  input: "save_2/RestoreV2:65"
  attr {
    key: "T"
    value {
      type: DT_FLOAT
    }
  }
  attr {
    key: "_output_shapes"
    value {
      list {
        shape {
          unknown_rank: true
        }
      }
    }
  }
}
node {
  name: "save_2/AssignVariableOp_62"
  op: "AssignVariableOp"
  input: "module/wide_resnet_1/res2/weights/Adam"
  input: "save_2/Identity_63"
  attr {
    key: "dtype"
    value {
      type: DT_FLOAT
    }
  }
}
node {
  name: "save_2/Identity_64"
  op: "Identity"
  input: "save_2/RestoreV2:66"
  attr {
    key: "T"
    value {
      type: DT_FLOAT
    }
  }
  attr {
    key: "_output_shapes"
    value {
      list {
        shape {
          unknown_rank: true
        }
      }
    }
  }
}
node {
  name: "save_2/AssignVariableOp_63"
  op: "AssignVariableOp"
  input: "module/wide_resnet_1/res2/weights/Adam_1"
  input: "save_2/Identity_64"
  attr {
    key: "dtype"
    value {
      type: DT_FLOAT
    }
  }
}
node {
  name: "save_2/Identity_65"
  op: "Identity"
  input: "save_2/RestoreV2:67"
  attr {
    key: "T"
    value {
      type: DT_FLOAT
    }
  }
  attr {
    key: "_output_shapes"
    value {
      list {
        shape {
          unknown_rank: true
        }
      }
    }
  }
}
node {
  name: "save_2/AssignVariableOp_64"
  op: "AssignVariableOp"
  input: "module/wide_resnet_2/res1/BatchNorm/beta"
  input: "save_2/Identity_65"
  attr {
    key: "dtype"
    value {
      type: DT_FLOAT
    }
  }
}
node {
  name: "save_2/Identity_66"
  op: "Identity"
  input: "save_2/RestoreV2:68"
  attr {
    key: "T"
    value {
      type: DT_FLOAT
    }
  }
  attr {
    key: "_output_shapes"
    value {
      list {
        shape {
          unknown_rank: true
        }
      }
    }
  }
}
node {
  name: "save_2/AssignVariableOp_65"
  op: "AssignVariableOp"
  input: "module/wide_resnet_2/res1/BatchNorm/beta/Adam"
  input: "save_2/Identity_66"
  attr {
    key: "dtype"
    value {
      type: DT_FLOAT
    }
  }
}
node {
  name: "save_2/Identity_67"
  op: "Identity"
  input: "save_2/RestoreV2:69"
  attr {
    key: "T"
    value {
      type: DT_FLOAT
    }
  }
  attr {
    key: "_output_shapes"
    value {
      list {
        shape {
          unknown_rank: true
        }
      }
    }
  }
}
node {
  name: "save_2/AssignVariableOp_66"
  op: "AssignVariableOp"
  input: "module/wide_resnet_2/res1/BatchNorm/beta/Adam_1"
  input: "save_2/Identity_67"
  attr {
    key: "dtype"
    value {
      type: DT_FLOAT
    }
  }
}
node {
  name: "save_2/Identity_68"
  op: "Identity"
  input: "save_2/RestoreV2:70"
  attr {
    key: "T"
    value {
      type: DT_FLOAT
    }
  }
  attr {
    key: "_output_shapes"
    value {
      list {
        shape {
          unknown_rank: true
        }
      }
    }
  }
}
node {
  name: "save_2/AssignVariableOp_67"
  op: "AssignVariableOp"
  input: "module/wide_resnet_2/res1/BatchNorm/moving_mean"
  input: "save_2/Identity_68"
  attr {
    key: "dtype"
    value {
      type: DT_FLOAT
    }
  }
}
node {
  name: "save_2/Identity_69"
  op: "Identity"
  input: "save_2/RestoreV2:71"
  attr {
    key: "T"
    value {
      type: DT_FLOAT
    }
  }
  attr {
    key: "_output_shapes"
    value {
      list {
        shape {
          unknown_rank: true
        }
      }
    }
  }
}
node {
  name: "save_2/AssignVariableOp_68"
  op: "AssignVariableOp"
  input: "module/wide_resnet_2/res1/BatchNorm/moving_variance"
  input: "save_2/Identity_69"
  attr {
    key: "dtype"
    value {
      type: DT_FLOAT
    }
  }
}
node {
  name: "save_2/Identity_70"
  op: "Identity"
  input: "save_2/RestoreV2:72"
  attr {
    key: "T"
    value {
      type: DT_FLOAT
    }
  }
  attr {
    key: "_output_shapes"
    value {
      list {
        shape {
          unknown_rank: true
        }
      }
    }
  }
}
node {
  name: "save_2/AssignVariableOp_69"
  op: "AssignVariableOp"
  input: "module/wide_resnet_2/res1/weights"
  input: "save_2/Identity_70"
  attr {
    key: "dtype"
    value {
      type: DT_FLOAT
    }
  }
}
node {
  name: "save_2/Identity_71"
  op: "Identity"
  input: "save_2/RestoreV2:73"
  attr {
    key: "T"
    value {
      type: DT_FLOAT
    }
  }
  attr {
    key: "_output_shapes"
    value {
      list {
        shape {
          unknown_rank: true
        }
      }
    }
  }
}
node {
  name: "save_2/AssignVariableOp_70"
  op: "AssignVariableOp"
  input: "module/wide_resnet_2/res1/weights/Adam"
  input: "save_2/Identity_71"
  attr {
    key: "dtype"
    value {
      type: DT_FLOAT
    }
  }
}
node {
  name: "save_2/Identity_72"
  op: "Identity"
  input: "save_2/RestoreV2:74"
  attr {
    key: "T"
    value {
      type: DT_FLOAT
    }
  }
  attr {
    key: "_output_shapes"
    value {
      list {
        shape {
          unknown_rank: true
        }
      }
    }
  }
}
node {
  name: "save_2/AssignVariableOp_71"
  op: "AssignVariableOp"
  input: "module/wide_resnet_2/res1/weights/Adam_1"
  input: "save_2/Identity_72"
  attr {
    key: "dtype"
    value {
      type: DT_FLOAT
    }
  }
}
node {
  name: "save_2/Identity_73"
  op: "Identity"
  input: "save_2/RestoreV2:75"
  attr {
    key: "T"
    value {
      type: DT_FLOAT
    }
  }
  attr {
    key: "_output_shapes"
    value {
      list {
        shape {
          unknown_rank: true
        }
      }
    }
  }
}
node {
  name: "save_2/AssignVariableOp_72"
  op: "AssignVariableOp"
  input: "module/wide_resnet_2/res2/biases"
  input: "save_2/Identity_73"
  attr {
    key: "dtype"
    value {
      type: DT_FLOAT
    }
  }
}
node {
  name: "save_2/Identity_74"
  op: "Identity"
  input: "save_2/RestoreV2:76"
  attr {
    key: "T"
    value {
      type: DT_FLOAT
    }
  }
  attr {
    key: "_output_shapes"
    value {
      list {
        shape {
          unknown_rank: true
        }
      }
    }
  }
}
node {
  name: "save_2/AssignVariableOp_73"
  op: "AssignVariableOp"
  input: "module/wide_resnet_2/res2/biases/Adam"
  input: "save_2/Identity_74"
  attr {
    key: "dtype"
    value {
      type: DT_FLOAT
    }
  }
}
node {
  name: "save_2/Identity_75"
  op: "Identity"
  input: "save_2/RestoreV2:77"
  attr {
    key: "T"
    value {
      type: DT_FLOAT
    }
  }
  attr {
    key: "_output_shapes"
    value {
      list {
        shape {
          unknown_rank: true
        }
      }
    }
  }
}
node {
  name: "save_2/AssignVariableOp_74"
  op: "AssignVariableOp"
  input: "module/wide_resnet_2/res2/biases/Adam_1"
  input: "save_2/Identity_75"
  attr {
    key: "dtype"
    value {
      type: DT_FLOAT
    }
  }
}
node {
  name: "save_2/Identity_76"
  op: "Identity"
  input: "save_2/RestoreV2:78"
  attr {
    key: "T"
    value {
      type: DT_FLOAT
    }
  }
  attr {
    key: "_output_shapes"
    value {
      list {
        shape {
          unknown_rank: true
        }
      }
    }
  }
}
node {
  name: "save_2/AssignVariableOp_75"
  op: "AssignVariableOp"
  input: "module/wide_resnet_2/res2/weights"
  input: "save_2/Identity_76"
  attr {
    key: "dtype"
    value {
      type: DT_FLOAT
    }
  }
}
node {
  name: "save_2/Identity_77"
  op: "Identity"
  input: "save_2/RestoreV2:79"
  attr {
    key: "T"
    value {
      type: DT_FLOAT
    }
  }
  attr {
    key: "_output_shapes"
    value {
      list {
        shape {
          unknown_rank: true
        }
      }
    }
  }
}
node {
  name: "save_2/AssignVariableOp_76"
  op: "AssignVariableOp"
  input: "module/wide_resnet_2/res2/weights/Adam"
  input: "save_2/Identity_77"
  attr {
    key: "dtype"
    value {
      type: DT_FLOAT
    }
  }
}
node {
  name: "save_2/Identity_78"
  op: "Identity"
  input: "save_2/RestoreV2:80"
  attr {
    key: "T"
    value {
      type: DT_FLOAT
    }
  }
  attr {
    key: "_output_shapes"
    value {
      list {
        shape {
          unknown_rank: true
        }
      }
    }
  }
}
node {
  name: "save_2/AssignVariableOp_77"
  op: "AssignVariableOp"
  input: "module/wide_resnet_2/res2/weights/Adam_1"
  input: "save_2/Identity_78"
  attr {
    key: "dtype"
    value {
      type: DT_FLOAT
    }
  }
}
node {
  name: "save_2/Identity_79"
  op: "Identity"
  input: "save_2/RestoreV2:81"
  attr {
    key: "T"
    value {
      type: DT_FLOAT
    }
  }
  attr {
    key: "_output_shapes"
    value {
      list {
        shape {
          unknown_rank: true
        }
      }
    }
  }
}
node {
  name: "save_2/AssignVariableOp_78"
  op: "AssignVariableOp"
  input: "module/wide_resnet_3/res1/BatchNorm/beta"
  input: "save_2/Identity_79"
  attr {
    key: "dtype"
    value {
      type: DT_FLOAT
    }
  }
}
node {
  name: "save_2/Identity_80"
  op: "Identity"
  input: "save_2/RestoreV2:82"
  attr {
    key: "T"
    value {
      type: DT_FLOAT
    }
  }
  attr {
    key: "_output_shapes"
    value {
      list {
        shape {
          unknown_rank: true
        }
      }
    }
  }
}
node {
  name: "save_2/AssignVariableOp_79"
  op: "AssignVariableOp"
  input: "module/wide_resnet_3/res1/BatchNorm/beta/Adam"
  input: "save_2/Identity_80"
  attr {
    key: "dtype"
    value {
      type: DT_FLOAT
    }
  }
}
node {
  name: "save_2/Identity_81"
  op: "Identity"
  input: "save_2/RestoreV2:83"
  attr {
    key: "T"
    value {
      type: DT_FLOAT
    }
  }
  attr {
    key: "_output_shapes"
    value {
      list {
        shape {
          unknown_rank: true
        }
      }
    }
  }
}
node {
  name: "save_2/AssignVariableOp_80"
  op: "AssignVariableOp"
  input: "module/wide_resnet_3/res1/BatchNorm/beta/Adam_1"
  input: "save_2/Identity_81"
  attr {
    key: "dtype"
    value {
      type: DT_FLOAT
    }
  }
}
node {
  name: "save_2/Identity_82"
  op: "Identity"
  input: "save_2/RestoreV2:84"
  attr {
    key: "T"
    value {
      type: DT_FLOAT
    }
  }
  attr {
    key: "_output_shapes"
    value {
      list {
        shape {
          unknown_rank: true
        }
      }
    }
  }
}
node {
  name: "save_2/AssignVariableOp_81"
  op: "AssignVariableOp"
  input: "module/wide_resnet_3/res1/BatchNorm/moving_mean"
  input: "save_2/Identity_82"
  attr {
    key: "dtype"
    value {
      type: DT_FLOAT
    }
  }
}
node {
  name: "save_2/Identity_83"
  op: "Identity"
  input: "save_2/RestoreV2:85"
  attr {
    key: "T"
    value {
      type: DT_FLOAT
    }
  }
  attr {
    key: "_output_shapes"
    value {
      list {
        shape {
          unknown_rank: true
        }
      }
    }
  }
}
node {
  name: "save_2/AssignVariableOp_82"
  op: "AssignVariableOp"
  input: "module/wide_resnet_3/res1/BatchNorm/moving_variance"
  input: "save_2/Identity_83"
  attr {
    key: "dtype"
    value {
      type: DT_FLOAT
    }
  }
}
node {
  name: "save_2/Identity_84"
  op: "Identity"
  input: "save_2/RestoreV2:86"
  attr {
    key: "T"
    value {
      type: DT_FLOAT
    }
  }
  attr {
    key: "_output_shapes"
    value {
      list {
        shape {
          unknown_rank: true
        }
      }
    }
  }
}
node {
  name: "save_2/AssignVariableOp_83"
  op: "AssignVariableOp"
  input: "module/wide_resnet_3/res1/weights"
  input: "save_2/Identity_84"
  attr {
    key: "dtype"
    value {
      type: DT_FLOAT
    }
  }
}
node {
  name: "save_2/Identity_85"
  op: "Identity"
  input: "save_2/RestoreV2:87"
  attr {
    key: "T"
    value {
      type: DT_FLOAT
    }
  }
  attr {
    key: "_output_shapes"
    value {
      list {
        shape {
          unknown_rank: true
        }
      }
    }
  }
}
node {
  name: "save_2/AssignVariableOp_84"
  op: "AssignVariableOp"
  input: "module/wide_resnet_3/res1/weights/Adam"
  input: "save_2/Identity_85"
  attr {
    key: "dtype"
    value {
      type: DT_FLOAT
    }
  }
}
node {
  name: "save_2/Identity_86"
  op: "Identity"
  input: "save_2/RestoreV2:88"
  attr {
    key: "T"
    value {
      type: DT_FLOAT
    }
  }
  attr {
    key: "_output_shapes"
    value {
      list {
        shape {
          unknown_rank: true
        }
      }
    }
  }
}
node {
  name: "save_2/AssignVariableOp_85"
  op: "AssignVariableOp"
  input: "module/wide_resnet_3/res1/weights/Adam_1"
  input: "save_2/Identity_86"
  attr {
    key: "dtype"
    value {
      type: DT_FLOAT
    }
  }
}
node {
  name: "save_2/Identity_87"
  op: "Identity"
  input: "save_2/RestoreV2:89"
  attr {
    key: "T"
    value {
      type: DT_FLOAT
    }
  }
  attr {
    key: "_output_shapes"
    value {
      list {
        shape {
          unknown_rank: true
        }
      }
    }
  }
}
node {
  name: "save_2/AssignVariableOp_86"
  op: "AssignVariableOp"
  input: "module/wide_resnet_3/res2/biases"
  input: "save_2/Identity_87"
  attr {
    key: "dtype"
    value {
      type: DT_FLOAT
    }
  }
}
node {
  name: "save_2/Identity_88"
  op: "Identity"
  input: "save_2/RestoreV2:90"
  attr {
    key: "T"
    value {
      type: DT_FLOAT
    }
  }
  attr {
    key: "_output_shapes"
    value {
      list {
        shape {
          unknown_rank: true
        }
      }
    }
  }
}
node {
  name: "save_2/AssignVariableOp_87"
  op: "AssignVariableOp"
  input: "module/wide_resnet_3/res2/biases/Adam"
  input: "save_2/Identity_88"
  attr {
    key: "dtype"
    value {
      type: DT_FLOAT
    }
  }
}
node {
  name: "save_2/Identity_89"
  op: "Identity"
  input: "save_2/RestoreV2:91"
  attr {
    key: "T"
    value {
      type: DT_FLOAT
    }
  }
  attr {
    key: "_output_shapes"
    value {
      list {
        shape {
          unknown_rank: true
        }
      }
    }
  }
}
node {
  name: "save_2/AssignVariableOp_88"
  op: "AssignVariableOp"
  input: "module/wide_resnet_3/res2/biases/Adam_1"
  input: "save_2/Identity_89"
  attr {
    key: "dtype"
    value {
      type: DT_FLOAT
    }
  }
}
node {
  name: "save_2/Identity_90"
  op: "Identity"
  input: "save_2/RestoreV2:92"
  attr {
    key: "T"
    value {
      type: DT_FLOAT
    }
  }
  attr {
    key: "_output_shapes"
    value {
      list {
        shape {
          unknown_rank: true
        }
      }
    }
  }
}
node {
  name: "save_2/AssignVariableOp_89"
  op: "AssignVariableOp"
  input: "module/wide_resnet_3/res2/weights"
  input: "save_2/Identity_90"
  attr {
    key: "dtype"
    value {
      type: DT_FLOAT
    }
  }
}
node {
  name: "save_2/Identity_91"
  op: "Identity"
  input: "save_2/RestoreV2:93"
  attr {
    key: "T"
    value {
      type: DT_FLOAT
    }
  }
  attr {
    key: "_output_shapes"
    value {
      list {
        shape {
          unknown_rank: true
        }
      }
    }
  }
}
node {
  name: "save_2/AssignVariableOp_90"
  op: "AssignVariableOp"
  input: "module/wide_resnet_3/res2/weights/Adam"
  input: "save_2/Identity_91"
  attr {
    key: "dtype"
    value {
      type: DT_FLOAT
    }
  }
}
node {
  name: "save_2/Identity_92"
  op: "Identity"
  input: "save_2/RestoreV2:94"
  attr {
    key: "T"
    value {
      type: DT_FLOAT
    }
  }
  attr {
    key: "_output_shapes"
    value {
      list {
        shape {
          unknown_rank: true
        }
      }
    }
  }
}
node {
  name: "save_2/AssignVariableOp_91"
  op: "AssignVariableOp"
  input: "module/wide_resnet_3/res2/weights/Adam_1"
  input: "save_2/Identity_92"
  attr {
    key: "dtype"
    value {
      type: DT_FLOAT
    }
  }
}
node {
  name: "save_2/Identity_93"
  op: "Identity"
  input: "save_2/RestoreV2:95"
  attr {
    key: "T"
    value {
      type: DT_FLOAT
    }
  }
  attr {
    key: "_output_shapes"
    value {
      list {
        shape {
          unknown_rank: true
        }
      }
    }
  }
}
node {
  name: "save_2/AssignVariableOp_92"
  op: "AssignVariableOp"
  input: "module/wide_resnet_3/shortcut/biases"
  input: "save_2/Identity_93"
  attr {
    key: "dtype"
    value {
      type: DT_FLOAT
    }
  }
}
node {
  name: "save_2/Identity_94"
  op: "Identity"
  input: "save_2/RestoreV2:96"
  attr {
    key: "T"
    value {
      type: DT_FLOAT
    }
  }
  attr {
    key: "_output_shapes"
    value {
      list {
        shape {
          unknown_rank: true
        }
      }
    }
  }
}
node {
  name: "save_2/AssignVariableOp_93"
  op: "AssignVariableOp"
  input: "module/wide_resnet_3/shortcut/biases/Adam"
  input: "save_2/Identity_94"
  attr {
    key: "dtype"
    value {
      type: DT_FLOAT
    }
  }
}
node {
  name: "save_2/Identity_95"
  op: "Identity"
  input: "save_2/RestoreV2:97"
  attr {
    key: "T"
    value {
      type: DT_FLOAT
    }
  }
  attr {
    key: "_output_shapes"
    value {
      list {
        shape {
          unknown_rank: true
        }
      }
    }
  }
}
node {
  name: "save_2/AssignVariableOp_94"
  op: "AssignVariableOp"
  input: "module/wide_resnet_3/shortcut/biases/Adam_1"
  input: "save_2/Identity_95"
  attr {
    key: "dtype"
    value {
      type: DT_FLOAT
    }
  }
}
node {
  name: "save_2/Identity_96"
  op: "Identity"
  input: "save_2/RestoreV2:98"
  attr {
    key: "T"
    value {
      type: DT_FLOAT
    }
  }
  attr {
    key: "_output_shapes"
    value {
      list {
        shape {
          unknown_rank: true
        }
      }
    }
  }
}
node {
  name: "save_2/AssignVariableOp_95"
  op: "AssignVariableOp"
  input: "module/wide_resnet_3/shortcut/weights"
  input: "save_2/Identity_96"
  attr {
    key: "dtype"
    value {
      type: DT_FLOAT
    }
  }
}
node {
  name: "save_2/Identity_97"
  op: "Identity"
  input: "save_2/RestoreV2:99"
  attr {
    key: "T"
    value {
      type: DT_FLOAT
    }
  }
  attr {
    key: "_output_shapes"
    value {
      list {
        shape {
          unknown_rank: true
        }
      }
    }
  }
}
node {
  name: "save_2/AssignVariableOp_96"
  op: "AssignVariableOp"
  input: "module/wide_resnet_3/shortcut/weights/Adam"
  input: "save_2/Identity_97"
  attr {
    key: "dtype"
    value {
      type: DT_FLOAT
    }
  }
}
node {
  name: "save_2/Identity_98"
  op: "Identity"
  input: "save_2/RestoreV2:100"
  attr {
    key: "T"
    value {
      type: DT_FLOAT
    }
  }
  attr {
    key: "_output_shapes"
    value {
      list {
        shape {
          unknown_rank: true
        }
      }
    }
  }
}
node {
  name: "save_2/AssignVariableOp_97"
  op: "AssignVariableOp"
  input: "module/wide_resnet_3/shortcut/weights/Adam_1"
  input: "save_2/Identity_98"
  attr {
    key: "dtype"
    value {
      type: DT_FLOAT
    }
  }
}
node {
  name: "save_2/Identity_99"
  op: "Identity"
  input: "save_2/RestoreV2:101"
  attr {
    key: "T"
    value {
      type: DT_FLOAT
    }
  }
  attr {
    key: "_output_shapes"
    value {
      list {
        shape {
          unknown_rank: true
        }
      }
    }
  }
}
node {
  name: "save_2/AssignVariableOp_98"
  op: "AssignVariableOp"
  input: "module/wide_resnet_4/res1/BatchNorm/beta"
  input: "save_2/Identity_99"
  attr {
    key: "dtype"
    value {
      type: DT_FLOAT
    }
  }
}
node {
  name: "save_2/Identity_100"
  op: "Identity"
  input: "save_2/RestoreV2:102"
  attr {
    key: "T"
    value {
      type: DT_FLOAT
    }
  }
  attr {
    key: "_output_shapes"
    value {
      list {
        shape {
          unknown_rank: true
        }
      }
    }
  }
}
node {
  name: "save_2/AssignVariableOp_99"
  op: "AssignVariableOp"
  input: "module/wide_resnet_4/res1/BatchNorm/beta/Adam"
  input: "save_2/Identity_100"
  attr {
    key: "dtype"
    value {
      type: DT_FLOAT
    }
  }
}
node {
  name: "save_2/Identity_101"
  op: "Identity"
  input: "save_2/RestoreV2:103"
  attr {
    key: "T"
    value {
      type: DT_FLOAT
    }
  }
  attr {
    key: "_output_shapes"
    value {
      list {
        shape {
          unknown_rank: true
        }
      }
    }
  }
}
node {
  name: "save_2/AssignVariableOp_100"
  op: "AssignVariableOp"
  input: "module/wide_resnet_4/res1/BatchNorm/beta/Adam_1"
  input: "save_2/Identity_101"
  attr {
    key: "dtype"
    value {
      type: DT_FLOAT
    }
  }
}
node {
  name: "save_2/Identity_102"
  op: "Identity"
  input: "save_2/RestoreV2:104"
  attr {
    key: "T"
    value {
      type: DT_FLOAT
    }
  }
  attr {
    key: "_output_shapes"
    value {
      list {
        shape {
          unknown_rank: true
        }
      }
    }
  }
}
node {
  name: "save_2/AssignVariableOp_101"
  op: "AssignVariableOp"
  input: "module/wide_resnet_4/res1/BatchNorm/moving_mean"
  input: "save_2/Identity_102"
  attr {
    key: "dtype"
    value {
      type: DT_FLOAT
    }
  }
}
node {
  name: "save_2/Identity_103"
  op: "Identity"
  input: "save_2/RestoreV2:105"
  attr {
    key: "T"
    value {
      type: DT_FLOAT
    }
  }
  attr {
    key: "_output_shapes"
    value {
      list {
        shape {
          unknown_rank: true
        }
      }
    }
  }
}
node {
  name: "save_2/AssignVariableOp_102"
  op: "AssignVariableOp"
  input: "module/wide_resnet_4/res1/BatchNorm/moving_variance"
  input: "save_2/Identity_103"
  attr {
    key: "dtype"
    value {
      type: DT_FLOAT
    }
  }
}
node {
  name: "save_2/Identity_104"
  op: "Identity"
  input: "save_2/RestoreV2:106"
  attr {
    key: "T"
    value {
      type: DT_FLOAT
    }
  }
  attr {
    key: "_output_shapes"
    value {
      list {
        shape {
          unknown_rank: true
        }
      }
    }
  }
}
node {
  name: "save_2/AssignVariableOp_103"
  op: "AssignVariableOp"
  input: "module/wide_resnet_4/res1/weights"
  input: "save_2/Identity_104"
  attr {
    key: "dtype"
    value {
      type: DT_FLOAT
    }
  }
}
node {
  name: "save_2/Identity_105"
  op: "Identity"
  input: "save_2/RestoreV2:107"
  attr {
    key: "T"
    value {
      type: DT_FLOAT
    }
  }
  attr {
    key: "_output_shapes"
    value {
      list {
        shape {
          unknown_rank: true
        }
      }
    }
  }
}
node {
  name: "save_2/AssignVariableOp_104"
  op: "AssignVariableOp"
  input: "module/wide_resnet_4/res1/weights/Adam"
  input: "save_2/Identity_105"
  attr {
    key: "dtype"
    value {
      type: DT_FLOAT
    }
  }
}
node {
  name: "save_2/Identity_106"
  op: "Identity"
  input: "save_2/RestoreV2:108"
  attr {
    key: "T"
    value {
      type: DT_FLOAT
    }
  }
  attr {
    key: "_output_shapes"
    value {
      list {
        shape {
          unknown_rank: true
        }
      }
    }
  }
}
node {
  name: "save_2/AssignVariableOp_105"
  op: "AssignVariableOp"
  input: "module/wide_resnet_4/res1/weights/Adam_1"
  input: "save_2/Identity_106"
  attr {
    key: "dtype"
    value {
      type: DT_FLOAT
    }
  }
}
node {
  name: "save_2/Identity_107"
  op: "Identity"
  input: "save_2/RestoreV2:109"
  attr {
    key: "T"
    value {
      type: DT_FLOAT
    }
  }
  attr {
    key: "_output_shapes"
    value {
      list {
        shape {
          unknown_rank: true
        }
      }
    }
  }
}
node {
  name: "save_2/AssignVariableOp_106"
  op: "AssignVariableOp"
  input: "module/wide_resnet_4/res2/biases"
  input: "save_2/Identity_107"
  attr {
    key: "dtype"
    value {
      type: DT_FLOAT
    }
  }
}
node {
  name: "save_2/Identity_108"
  op: "Identity"
  input: "save_2/RestoreV2:110"
  attr {
    key: "T"
    value {
      type: DT_FLOAT
    }
  }
  attr {
    key: "_output_shapes"
    value {
      list {
        shape {
          unknown_rank: true
        }
      }
    }
  }
}
node {
  name: "save_2/AssignVariableOp_107"
  op: "AssignVariableOp"
  input: "module/wide_resnet_4/res2/biases/Adam"
  input: "save_2/Identity_108"
  attr {
    key: "dtype"
    value {
      type: DT_FLOAT
    }
  }
}
node {
  name: "save_2/Identity_109"
  op: "Identity"
  input: "save_2/RestoreV2:111"
  attr {
    key: "T"
    value {
      type: DT_FLOAT
    }
  }
  attr {
    key: "_output_shapes"
    value {
      list {
        shape {
          unknown_rank: true
        }
      }
    }
  }
}
node {
  name: "save_2/AssignVariableOp_108"
  op: "AssignVariableOp"
  input: "module/wide_resnet_4/res2/biases/Adam_1"
  input: "save_2/Identity_109"
  attr {
    key: "dtype"
    value {
      type: DT_FLOAT
    }
  }
}
node {
  name: "save_2/Identity_110"
  op: "Identity"
  input: "save_2/RestoreV2:112"
  attr {
    key: "T"
    value {
      type: DT_FLOAT
    }
  }
  attr {
    key: "_output_shapes"
    value {
      list {
        shape {
          unknown_rank: true
        }
      }
    }
  }
}
node {
  name: "save_2/AssignVariableOp_109"
  op: "AssignVariableOp"
  input: "module/wide_resnet_4/res2/weights"
  input: "save_2/Identity_110"
  attr {
    key: "dtype"
    value {
      type: DT_FLOAT
    }
  }
}
node {
  name: "save_2/Identity_111"
  op: "Identity"
  input: "save_2/RestoreV2:113"
  attr {
    key: "T"
    value {
      type: DT_FLOAT
    }
  }
  attr {
    key: "_output_shapes"
    value {
      list {
        shape {
          unknown_rank: true
        }
      }
    }
  }
}
node {
  name: "save_2/AssignVariableOp_110"
  op: "AssignVariableOp"
  input: "module/wide_resnet_4/res2/weights/Adam"
  input: "save_2/Identity_111"
  attr {
    key: "dtype"
    value {
      type: DT_FLOAT
    }
  }
}
node {
  name: "save_2/Identity_112"
  op: "Identity"
  input: "save_2/RestoreV2:114"
  attr {
    key: "T"
    value {
      type: DT_FLOAT
    }
  }
  attr {
    key: "_output_shapes"
    value {
      list {
        shape {
          unknown_rank: true
        }
      }
    }
  }
}
node {
  name: "save_2/AssignVariableOp_111"
  op: "AssignVariableOp"
  input: "module/wide_resnet_4/res2/weights/Adam_1"
  input: "save_2/Identity_112"
  attr {
    key: "dtype"
    value {
      type: DT_FLOAT
    }
  }
}
node {
  name: "save_2/Identity_113"
  op: "Identity"
  input: "save_2/RestoreV2:115"
  attr {
    key: "T"
    value {
      type: DT_FLOAT
    }
  }
  attr {
    key: "_output_shapes"
    value {
      list {
        shape {
          unknown_rank: true
        }
      }
    }
  }
}
node {
  name: "save_2/AssignVariableOp_112"
  op: "AssignVariableOp"
  input: "module/wide_resnet_4/shortcut/biases"
  input: "save_2/Identity_113"
  attr {
    key: "dtype"
    value {
      type: DT_FLOAT
    }
  }
}
node {
  name: "save_2/Identity_114"
  op: "Identity"
  input: "save_2/RestoreV2:116"
  attr {
    key: "T"
    value {
      type: DT_FLOAT
    }
  }
  attr {
    key: "_output_shapes"
    value {
      list {
        shape {
          unknown_rank: true
        }
      }
    }
  }
}
node {
  name: "save_2/AssignVariableOp_113"
  op: "AssignVariableOp"
  input: "module/wide_resnet_4/shortcut/biases/Adam"
  input: "save_2/Identity_114"
  attr {
    key: "dtype"
    value {
      type: DT_FLOAT
    }
  }
}
node {
  name: "save_2/Identity_115"
  op: "Identity"
  input: "save_2/RestoreV2:117"
  attr {
    key: "T"
    value {
      type: DT_FLOAT
    }
  }
  attr {
    key: "_output_shapes"
    value {
      list {
        shape {
          unknown_rank: true
        }
      }
    }
  }
}
node {
  name: "save_2/AssignVariableOp_114"
  op: "AssignVariableOp"
  input: "module/wide_resnet_4/shortcut/biases/Adam_1"
  input: "save_2/Identity_115"
  attr {
    key: "dtype"
    value {
      type: DT_FLOAT
    }
  }
}
node {
  name: "save_2/Identity_116"
  op: "Identity"
  input: "save_2/RestoreV2:118"
  attr {
    key: "T"
    value {
      type: DT_FLOAT
    }
  }
  attr {
    key: "_output_shapes"
    value {
      list {
        shape {
          unknown_rank: true
        }
      }
    }
  }
}
node {
  name: "save_2/AssignVariableOp_115"
  op: "AssignVariableOp"
  input: "module/wide_resnet_4/shortcut/weights"
  input: "save_2/Identity_116"
  attr {
    key: "dtype"
    value {
      type: DT_FLOAT
    }
  }
}
node {
  name: "save_2/Identity_117"
  op: "Identity"
  input: "save_2/RestoreV2:119"
  attr {
    key: "T"
    value {
      type: DT_FLOAT
    }
  }
  attr {
    key: "_output_shapes"
    value {
      list {
        shape {
          unknown_rank: true
        }
      }
    }
  }
}
node {
  name: "save_2/AssignVariableOp_116"
  op: "AssignVariableOp"
  input: "module/wide_resnet_4/shortcut/weights/Adam"
  input: "save_2/Identity_117"
  attr {
    key: "dtype"
    value {
      type: DT_FLOAT
    }
  }
}
node {
  name: "save_2/Identity_118"
  op: "Identity"
  input: "save_2/RestoreV2:120"
  attr {
    key: "T"
    value {
      type: DT_FLOAT
    }
  }
  attr {
    key: "_output_shapes"
    value {
      list {
        shape {
          unknown_rank: true
        }
      }
    }
  }
}
node {
  name: "save_2/AssignVariableOp_117"
  op: "AssignVariableOp"
  input: "module/wide_resnet_4/shortcut/weights/Adam_1"
  input: "save_2/Identity_118"
  attr {
    key: "dtype"
    value {
      type: DT_FLOAT
    }
  }
}
node {
  name: "save_2/Identity_119"
  op: "Identity"
  input: "save_2/RestoreV2:121"
  attr {
    key: "T"
    value {
      type: DT_FLOAT
    }
  }
  attr {
    key: "_output_shapes"
    value {
      list {
        shape {
          unknown_rank: true
        }
      }
    }
  }
}
node {
  name: "save_2/AssignVariableOp_118"
  op: "AssignVariableOp"
  input: "module/wide_resnet_5/res1/BatchNorm/beta"
  input: "save_2/Identity_119"
  attr {
    key: "dtype"
    value {
      type: DT_FLOAT
    }
  }
}
node {
  name: "save_2/Identity_120"
  op: "Identity"
  input: "save_2/RestoreV2:122"
  attr {
    key: "T"
    value {
      type: DT_FLOAT
    }
  }
  attr {
    key: "_output_shapes"
    value {
      list {
        shape {
          unknown_rank: true
        }
      }
    }
  }
}
node {
  name: "save_2/AssignVariableOp_119"
  op: "AssignVariableOp"
  input: "module/wide_resnet_5/res1/BatchNorm/beta/Adam"
  input: "save_2/Identity_120"
  attr {
    key: "dtype"
    value {
      type: DT_FLOAT
    }
  }
}
node {
  name: "save_2/Identity_121"
  op: "Identity"
  input: "save_2/RestoreV2:123"
  attr {
    key: "T"
    value {
      type: DT_FLOAT
    }
  }
  attr {
    key: "_output_shapes"
    value {
      list {
        shape {
          unknown_rank: true
        }
      }
    }
  }
}
node {
  name: "save_2/AssignVariableOp_120"
  op: "AssignVariableOp"
  input: "module/wide_resnet_5/res1/BatchNorm/beta/Adam_1"
  input: "save_2/Identity_121"
  attr {
    key: "dtype"
    value {
      type: DT_FLOAT
    }
  }
}
node {
  name: "save_2/Identity_122"
  op: "Identity"
  input: "save_2/RestoreV2:124"
  attr {
    key: "T"
    value {
      type: DT_FLOAT
    }
  }
  attr {
    key: "_output_shapes"
    value {
      list {
        shape {
          unknown_rank: true
        }
      }
    }
  }
}
node {
  name: "save_2/AssignVariableOp_121"
  op: "AssignVariableOp"
  input: "module/wide_resnet_5/res1/BatchNorm/moving_mean"
  input: "save_2/Identity_122"
  attr {
    key: "dtype"
    value {
      type: DT_FLOAT
    }
  }
}
node {
  name: "save_2/Identity_123"
  op: "Identity"
  input: "save_2/RestoreV2:125"
  attr {
    key: "T"
    value {
      type: DT_FLOAT
    }
  }
  attr {
    key: "_output_shapes"
    value {
      list {
        shape {
          unknown_rank: true
        }
      }
    }
  }
}
node {
  name: "save_2/AssignVariableOp_122"
  op: "AssignVariableOp"
  input: "module/wide_resnet_5/res1/BatchNorm/moving_variance"
  input: "save_2/Identity_123"
  attr {
    key: "dtype"
    value {
      type: DT_FLOAT
    }
  }
}
node {
  name: "save_2/Identity_124"
  op: "Identity"
  input: "save_2/RestoreV2:126"
  attr {
    key: "T"
    value {
      type: DT_FLOAT
    }
  }
  attr {
    key: "_output_shapes"
    value {
      list {
        shape {
          unknown_rank: true
        }
      }
    }
  }
}
node {
  name: "save_2/AssignVariableOp_123"
  op: "AssignVariableOp"
  input: "module/wide_resnet_5/res1/weights"
  input: "save_2/Identity_124"
  attr {
    key: "dtype"
    value {
      type: DT_FLOAT
    }
  }
}
node {
  name: "save_2/Identity_125"
  op: "Identity"
  input: "save_2/RestoreV2:127"
  attr {
    key: "T"
    value {
      type: DT_FLOAT
    }
  }
  attr {
    key: "_output_shapes"
    value {
      list {
        shape {
          unknown_rank: true
        }
      }
    }
  }
}
node {
  name: "save_2/AssignVariableOp_124"
  op: "AssignVariableOp"
  input: "module/wide_resnet_5/res1/weights/Adam"
  input: "save_2/Identity_125"
  attr {
    key: "dtype"
    value {
      type: DT_FLOAT
    }
  }
}
node {
  name: "save_2/Identity_126"
  op: "Identity"
  input: "save_2/RestoreV2:128"
  attr {
    key: "T"
    value {
      type: DT_FLOAT
    }
  }
  attr {
    key: "_output_shapes"
    value {
      list {
        shape {
          unknown_rank: true
        }
      }
    }
  }
}
node {
  name: "save_2/AssignVariableOp_125"
  op: "AssignVariableOp"
  input: "module/wide_resnet_5/res1/weights/Adam_1"
  input: "save_2/Identity_126"
  attr {
    key: "dtype"
    value {
      type: DT_FLOAT
    }
  }
}
node {
  name: "save_2/Identity_127"
  op: "Identity"
  input: "save_2/RestoreV2:129"
  attr {
    key: "T"
    value {
      type: DT_FLOAT
    }
  }
  attr {
    key: "_output_shapes"
    value {
      list {
        shape {
          unknown_rank: true
        }
      }
    }
  }
}
node {
  name: "save_2/AssignVariableOp_126"
  op: "AssignVariableOp"
  input: "module/wide_resnet_5/res2/biases"
  input: "save_2/Identity_127"
  attr {
    key: "dtype"
    value {
      type: DT_FLOAT
    }
  }
}
node {
  name: "save_2/Identity_128"
  op: "Identity"
  input: "save_2/RestoreV2:130"
  attr {
    key: "T"
    value {
      type: DT_FLOAT
    }
  }
  attr {
    key: "_output_shapes"
    value {
      list {
        shape {
          unknown_rank: true
        }
      }
    }
  }
}
node {
  name: "save_2/AssignVariableOp_127"
  op: "AssignVariableOp"
  input: "module/wide_resnet_5/res2/biases/Adam"
  input: "save_2/Identity_128"
  attr {
    key: "dtype"
    value {
      type: DT_FLOAT
    }
  }
}
node {
  name: "save_2/Identity_129"
  op: "Identity"
  input: "save_2/RestoreV2:131"
  attr {
    key: "T"
    value {
      type: DT_FLOAT
    }
  }
  attr {
    key: "_output_shapes"
    value {
      list {
        shape {
          unknown_rank: true
        }
      }
    }
  }
}
node {
  name: "save_2/AssignVariableOp_128"
  op: "AssignVariableOp"
  input: "module/wide_resnet_5/res2/biases/Adam_1"
  input: "save_2/Identity_129"
  attr {
    key: "dtype"
    value {
      type: DT_FLOAT
    }
  }
}
node {
  name: "save_2/Identity_130"
  op: "Identity"
  input: "save_2/RestoreV2:132"
  attr {
    key: "T"
    value {
      type: DT_FLOAT
    }
  }
  attr {
    key: "_output_shapes"
    value {
      list {
        shape {
          unknown_rank: true
        }
      }
    }
  }
}
node {
  name: "save_2/AssignVariableOp_129"
  op: "AssignVariableOp"
  input: "module/wide_resnet_5/res2/weights"
  input: "save_2/Identity_130"
  attr {
    key: "dtype"
    value {
      type: DT_FLOAT
    }
  }
}
node {
  name: "save_2/Identity_131"
  op: "Identity"
  input: "save_2/RestoreV2:133"
  attr {
    key: "T"
    value {
      type: DT_FLOAT
    }
  }
  attr {
    key: "_output_shapes"
    value {
      list {
        shape {
          unknown_rank: true
        }
      }
    }
  }
}
node {
  name: "save_2/AssignVariableOp_130"
  op: "AssignVariableOp"
  input: "module/wide_resnet_5/res2/weights/Adam"
  input: "save_2/Identity_131"
  attr {
    key: "dtype"
    value {
      type: DT_FLOAT
    }
  }
}
node {
  name: "save_2/Identity_132"
  op: "Identity"
  input: "save_2/RestoreV2:134"
  attr {
    key: "T"
    value {
      type: DT_FLOAT
    }
  }
  attr {
    key: "_output_shapes"
    value {
      list {
        shape {
          unknown_rank: true
        }
      }
    }
  }
}
node {
  name: "save_2/AssignVariableOp_131"
  op: "AssignVariableOp"
  input: "module/wide_resnet_5/res2/weights/Adam_1"
  input: "save_2/Identity_132"
  attr {
    key: "dtype"
    value {
      type: DT_FLOAT
    }
  }
}
node {
  name: "save_2/restore_shard"
  op: "NoOp"
  input: "^save_2/Assign"
  input: "^save_2/AssignVariableOp"
  input: "^save_2/AssignVariableOp_1"
  input: "^save_2/AssignVariableOp_10"
  input: "^save_2/AssignVariableOp_100"
  input: "^save_2/AssignVariableOp_101"
  input: "^save_2/AssignVariableOp_102"
  input: "^save_2/AssignVariableOp_103"
  input: "^save_2/AssignVariableOp_104"
  input: "^save_2/AssignVariableOp_105"
  input: "^save_2/AssignVariableOp_106"
  input: "^save_2/AssignVariableOp_107"
  input: "^save_2/AssignVariableOp_108"
  input: "^save_2/AssignVariableOp_109"
  input: "^save_2/AssignVariableOp_11"
  input: "^save_2/AssignVariableOp_110"
  input: "^save_2/AssignVariableOp_111"
  input: "^save_2/AssignVariableOp_112"
  input: "^save_2/AssignVariableOp_113"
  input: "^save_2/AssignVariableOp_114"
  input: "^save_2/AssignVariableOp_115"
  input: "^save_2/AssignVariableOp_116"
  input: "^save_2/AssignVariableOp_117"
  input: "^save_2/AssignVariableOp_118"
  input: "^save_2/AssignVariableOp_119"
  input: "^save_2/AssignVariableOp_12"
  input: "^save_2/AssignVariableOp_120"
  input: "^save_2/AssignVariableOp_121"
  input: "^save_2/AssignVariableOp_122"
  input: "^save_2/AssignVariableOp_123"
  input: "^save_2/AssignVariableOp_124"
  input: "^save_2/AssignVariableOp_125"
  input: "^save_2/AssignVariableOp_126"
  input: "^save_2/AssignVariableOp_127"
  input: "^save_2/AssignVariableOp_128"
  input: "^save_2/AssignVariableOp_129"
  input: "^save_2/AssignVariableOp_13"
  input: "^save_2/AssignVariableOp_130"
  input: "^save_2/AssignVariableOp_131"
  input: "^save_2/AssignVariableOp_14"
  input: "^save_2/AssignVariableOp_15"
  input: "^save_2/AssignVariableOp_16"
  input: "^save_2/AssignVariableOp_17"
  input: "^save_2/AssignVariableOp_18"
  input: "^save_2/AssignVariableOp_19"
  input: "^save_2/AssignVariableOp_2"
  input: "^save_2/AssignVariableOp_20"
  input: "^save_2/AssignVariableOp_21"
  input: "^save_2/AssignVariableOp_22"
  input: "^save_2/AssignVariableOp_23"
  input: "^save_2/AssignVariableOp_24"
  input: "^save_2/AssignVariableOp_25"
  input: "^save_2/AssignVariableOp_26"
  input: "^save_2/AssignVariableOp_27"
  input: "^save_2/AssignVariableOp_28"
  input: "^save_2/AssignVariableOp_29"
  input: "^save_2/AssignVariableOp_3"
  input: "^save_2/AssignVariableOp_30"
  input: "^save_2/AssignVariableOp_31"
  input: "^save_2/AssignVariableOp_32"
  input: "^save_2/AssignVariableOp_33"
  input: "^save_2/AssignVariableOp_34"
  input: "^save_2/AssignVariableOp_35"
  input: "^save_2/AssignVariableOp_36"
  input: "^save_2/AssignVariableOp_37"
  input: "^save_2/AssignVariableOp_38"
  input: "^save_2/AssignVariableOp_39"
  input: "^save_2/AssignVariableOp_4"
  input: "^save_2/AssignVariableOp_40"
  input: "^save_2/AssignVariableOp_41"
  input: "^save_2/AssignVariableOp_42"
  input: "^save_2/AssignVariableOp_43"
  input: "^save_2/AssignVariableOp_44"
  input: "^save_2/AssignVariableOp_45"
  input: "^save_2/AssignVariableOp_46"
  input: "^save_2/AssignVariableOp_47"
  input: "^save_2/AssignVariableOp_48"
  input: "^save_2/AssignVariableOp_49"
  input: "^save_2/AssignVariableOp_5"
  input: "^save_2/AssignVariableOp_50"
  input: "^save_2/AssignVariableOp_51"
  input: "^save_2/AssignVariableOp_52"
  input: "^save_2/AssignVariableOp_53"
  input: "^save_2/AssignVariableOp_54"
  input: "^save_2/AssignVariableOp_55"
  input: "^save_2/AssignVariableOp_56"
  input: "^save_2/AssignVariableOp_57"
  input: "^save_2/AssignVariableOp_58"
  input: "^save_2/AssignVariableOp_59"
  input: "^save_2/AssignVariableOp_6"
  input: "^save_2/AssignVariableOp_60"
  input: "^save_2/AssignVariableOp_61"
  input: "^save_2/AssignVariableOp_62"
  input: "^save_2/AssignVariableOp_63"
  input: "^save_2/AssignVariableOp_64"
  input: "^save_2/AssignVariableOp_65"
  input: "^save_2/AssignVariableOp_66"
  input: "^save_2/AssignVariableOp_67"
  input: "^save_2/AssignVariableOp_68"
  input: "^save_2/AssignVariableOp_69"
  input: "^save_2/AssignVariableOp_7"
  input: "^save_2/AssignVariableOp_70"
  input: "^save_2/AssignVariableOp_71"
  input: "^save_2/AssignVariableOp_72"
  input: "^save_2/AssignVariableOp_73"
  input: "^save_2/AssignVariableOp_74"
  input: "^save_2/AssignVariableOp_75"
  input: "^save_2/AssignVariableOp_76"
  input: "^save_2/AssignVariableOp_77"
  input: "^save_2/AssignVariableOp_78"
  input: "^save_2/AssignVariableOp_79"
  input: "^save_2/AssignVariableOp_8"
  input: "^save_2/AssignVariableOp_80"
  input: "^save_2/AssignVariableOp_81"
  input: "^save_2/AssignVariableOp_82"
  input: "^save_2/AssignVariableOp_83"
  input: "^save_2/AssignVariableOp_84"
  input: "^save_2/AssignVariableOp_85"
  input: "^save_2/AssignVariableOp_86"
  input: "^save_2/AssignVariableOp_87"
  input: "^save_2/AssignVariableOp_88"
  input: "^save_2/AssignVariableOp_89"
  input: "^save_2/AssignVariableOp_9"
  input: "^save_2/AssignVariableOp_90"
  input: "^save_2/AssignVariableOp_91"
  input: "^save_2/AssignVariableOp_92"
  input: "^save_2/AssignVariableOp_93"
  input: "^save_2/AssignVariableOp_94"
  input: "^save_2/AssignVariableOp_95"
  input: "^save_2/AssignVariableOp_96"
  input: "^save_2/AssignVariableOp_97"
  input: "^save_2/AssignVariableOp_98"
  input: "^save_2/AssignVariableOp_99"
  input: "^save_2/Assign_1"
  input: "^save_2/Assign_2"
}
node {
  name: "save_2/restore_all"
  op: "NoOp"
  input: "^save_2/restore_shard"
}
library {
  function {
    signature {
      name: "tf_data_structured_function_wrapper_aA3atTapwCk"
      input_arg {
        name: "arg0"
        type: DT_INT64
      }
      output_arg {
        name: "pyfunc"
        type: DT_FLOAT
      }
      output_arg {
        name: "pyfunc_0"
        type: DT_FLOAT
      }
      description: "Wrapper for passing nested structures to and from tf.data functions."
      is_stateful: true
    }
    node_def {
      name: "PyFunc"
      op: "PyFunc"
      input: "arg0"
      device: "/device:CPU:0"
      attr {
        key: "Tin"
        value {
          list {
            type: DT_INT64
          }
        }
      }
      attr {
        key: "Tout"
        value {
          list {
            type: DT_FLOAT
            type: DT_FLOAT
          }
        }
      }
      attr {
        key: "token"
        value {
          s: "pyfunc_1"
        }
      }
    }
    ret {
      key: "pyfunc"
      value: "PyFunc:output:0"
    }
    ret {
      key: "pyfunc_0"
      value: "PyFunc:output:1"
    }
  }
}
versions {
  producer: 27
  min_consumer: 12
}
